{"format": "graph-model", "generatedBy": "2.7.0", "convertedBy": "TensorFlow.js Converter v3.11.0", "signature": {"inputs": {"input_rgb": {"name": "input_rgb:0", "dtype": "DT_FLOAT", "tensorShape": {"dim": [{"size": "1"}, {"size": "480"}, {"size": "640"}, {"size": "3"}]}}, "input_mask": {"name": "input_mask:0", "dtype": "DT_FLOAT", "tensorShape": {"dim": [{"size": "1"}, {"size": "480"}, {"size": "640"}, {"size": "1"}]}}}, "outputs": {"Identity:0": {"name": "Identity:0", "dtype": "DT_FLOAT", "tensorShape": {"dim": [{"size": "1"}, {"size": "7"}, {"size": "8"}]}}, "Identity_2:0": {"name": "Identity_2:0", "dtype": "DT_FLOAT", "tensorShape": {"dim": [{"size": "1"}, {"size": "7"}, {"size": "8"}]}}, "tf.identity_4": {"name": "Identity_4:0", "dtype": "DT_FLOAT", "tensorShape": {"dim": [{"size": "1"}, {"size": "300"}, {"size": "300"}]}}, "Identity_3:0": {"name": "Identity_3:0", "dtype": "DT_FLOAT", "tensorShape": {"dim": [{"size": "1"}, {"size": "7"}, {"size": "2"}]}}, "Identity_1:0": {"name": "Identity_1:0", "dtype": "DT_FLOAT", "tensorShape": {"dim": [{"size": "1"}, {"size": "7"}, {"size": "2"}]}}}}, "modelTopology": {"node": [{"name": "StatefulPartitionedCall/model/tf.strided_slice_6/StridedSlice/begin", "op": "Const", "attr": {"value": {"tensor": {"dtype": "DT_INT64", "tensorShape": {"dim": [{"size": "4"}]}}}, "dtype": {"type": "DT_INT64"}}}, {"name": "StatefulPartitionedCall/model/tf.strided_slice_6/StridedSlice/end", "op": "Const", "attr": {"value": {"tensor": {"dtype": "DT_INT64", "tensorShape": {"dim": [{"size": "4"}]}}}, "dtype": {"type": "DT_INT64"}}}, {"name": "StatefulPartitionedCall/model/tf.strided_slice_6/StridedSlice/strides", "op": "Const", "attr": {"dtype": {"type": "DT_INT64"}, "value": {"tensor": {"dtype": "DT_INT64", "tensorShape": {"dim": [{"size": "4"}]}}}}}, {"name": "StatefulPartitionedCall/model/tf.strided_slice_7/StridedSlice/begin", "op": "Const", "attr": {"dtype": {"type": "DT_INT64"}, "value": {"tensor": {"dtype": "DT_INT64", "tensorShape": {"dim": [{"size": "4"}]}}}}}, {"name": "StatefulPartitionedCall/model/tf.strided_slice_7/StridedSlice/end", "op": "Const", "attr": {"value": {"tensor": {"dtype": "DT_INT64", "tensorShape": {"dim": [{"size": "4"}]}}}, "dtype": {"type": "DT_INT64"}}}, {"name": "StatefulPartitionedCall/model/tf.strided_slice_7/StridedSlice/strides", "op": "Const", "attr": {"value": {"tensor": {"dtype": "DT_INT64", "tensorShape": {"dim": [{"size": "4"}]}}}, "dtype": {"type": "DT_INT64"}}}, {"name": "StatefulPartitionedCall/model/tf.linalg.matmul_40/MatMul/b", "op": "Const", "attr": {"value": {"tensor": {"dtype": "DT_FLOAT", "tensorShape": {"dim": [{"size": "32"}, {"size": "32"}]}}}, "dtype": {"type": "DT_FLOAT"}}}, {"name": "StatefulPartitionedCall/model/tf.math.add_84/Add/y", "op": "Const", "attr": {"value": {"tensor": {"dtype": "DT_FLOAT", "tensorShape": {"dim": [{"size": "32"}]}}}, "dtype": {"type": "DT_FLOAT"}}}, {"name": "StatefulPartitionedCall/model/tf.linalg.matmul_41/MatMul/b", "op": "Const", "attr": {"dtype": {"type": "DT_FLOAT"}, "value": {"tensor": {"dtype": "DT_FLOAT", "tensorShape": {"dim": [{"size": "32"}, {"size": "32"}]}}}}}, {"name": "StatefulPartitionedCall/model/tf.math.add_85/Add/y", "op": "Const", "attr": {"value": {"tensor": {"dtype": "DT_FLOAT", "tensorShape": {"dim": [{"size": "32"}]}}}, "dtype": {"type": "DT_FLOAT"}}}, {"name": "StatefulPartitionedCall/model/tf.linalg.matmul_42/MatMul/b", "op": "Const", "attr": {"value": {"tensor": {"dtype": "DT_FLOAT", "tensorShape": {"dim": [{"size": "4"}, {"size": "32"}]}}}, "dtype": {"type": "DT_FLOAT"}}}, {"name": "StatefulPartitionedCall/model/tf.math.add_86/Add/y", "op": "Const", "attr": {"value": {"tensor": {"dtype": "DT_FLOAT", "tensorShape": {"dim": [{"size": "4"}]}}}, "dtype": {"type": "DT_FLOAT"}}}, {"name": "StatefulPartitionedCall/model/tf.math.reduce_mean_11/Mean/reduction_indices", "op": "Const", "attr": {"value": {"tensor": {"dtype": "DT_INT32", "tensorShape": {"dim": [{"size": "1"}]}}}, "dtype": {"type": "DT_INT32"}}}, {"name": "StatefulPartitionedCall/model/tf.tile/Tile/multiples", "op": "Const", "attr": {"value": {"tensor": {"dtype": "DT_INT64", "tensorShape": {"dim": [{"size": "4"}]}}}, "dtype": {"type": "DT_INT64"}}}, {"name": "StatefulPartitionedCall/model/lambda/Split/split_dim", "op": "Const", "attr": {"dtype": {"type": "DT_INT32"}, "value": {"tensor": {"dtype": "DT_INT32", "tensorShape": {}}}}}, {"name": "StatefulPartitionedCall/model/tf.linalg.matmul_37/MatMul/b", "op": "Const", "attr": {"dtype": {"type": "DT_FLOAT"}, "value": {"tensor": {"dtype": "DT_FLOAT", "tensorShape": {"dim": [{"size": "32"}, {"size": "32"}]}}}}}, {"name": "StatefulPartitionedCall/model/tf.math.add_81/Add/y", "op": "Const", "attr": {"dtype": {"type": "DT_FLOAT"}, "value": {"tensor": {"dtype": "DT_FLOAT", "tensorShape": {"dim": [{"size": "32"}]}}}}}, {"name": "StatefulPartitionedCall/model/tf.linalg.matmul_38/MatMul/b", "op": "Const", "attr": {"value": {"tensor": {"dtype": "DT_FLOAT", "tensorShape": {"dim": [{"size": "32"}, {"size": "32"}]}}}, "dtype": {"type": "DT_FLOAT"}}}, {"name": "StatefulPartitionedCall/model/tf.math.add_82/Add/y", "op": "Const", "attr": {"value": {"tensor": {"dtype": "DT_FLOAT", "tensorShape": {"dim": [{"size": "32"}]}}}, "dtype": {"type": "DT_FLOAT"}}}, {"name": "StatefulPartitionedCall/model/tf.linalg.matmul_39/MatMul/b", "op": "Const", "attr": {"value": {"tensor": {"dtype": "DT_FLOAT", "tensorShape": {"dim": [{"size": "4"}, {"size": "32"}]}}}, "dtype": {"type": "DT_FLOAT"}}}, {"name": "StatefulPartitionedCall/model/tf.math.add_83/Add/y", "op": "Const", "attr": {"value": {"tensor": {"dtype": "DT_FLOAT", "tensorShape": {"dim": [{"size": "4"}]}}}, "dtype": {"type": "DT_FLOAT"}}}, {"name": "StatefulPartitionedCall/model/tf.concat_4/concat/axis", "op": "Const", "attr": {"dtype": {"type": "DT_INT32"}, "value": {"tensor": {"dtype": "DT_INT32", "tensorShape": {}}}}}, {"name": "StatefulPartitionedCall/model/tf.compat.v1.gather_2/GatherV2/indices", "op": "Const", "attr": {"dtype": {"type": "DT_INT32"}, "value": {"tensor": {"dtype": "DT_INT32", "tensorShape": {"dim": [{"size": "1"}]}}}}}, {"name": "StatefulPartitionedCall/model/tf.compat.v1.gather_2/GatherV2/axis", "op": "Const", "attr": {"dtype": {"type": "DT_INT32"}, "value": {"tensor": {"dtype": "DT_INT32", "tensorShape": {}}}}}, {"name": "StatefulPartitionedCall/model/tf.__operators__.getitem/strided_slice/stack", "op": "Const", "attr": {"dtype": {"type": "DT_INT32"}, "value": {"tensor": {"dtype": "DT_INT32", "tensorShape": {"dim": [{"size": "1"}]}}}}}, {"name": "StatefulPartitionedCall/model/tf.__operators__.getitem/strided_slice/stack_1", "op": "Const", "attr": {"dtype": {"type": "DT_INT32"}, "value": {"tensor": {"dtype": "DT_INT32", "tensorShape": {"dim": [{"size": "1"}]}}}}}, {"name": "StatefulPartitionedCall/model/tf.__operators__.getitem/strided_slice/stack_2", "op": "Const", "attr": {"value": {"tensor": {"dtype": "DT_INT32", "tensorShape": {"dim": [{"size": "1"}]}}}, "dtype": {"type": "DT_INT32"}}}, {"name": "unknown_62", "op": "Const", "attr": {"value": {"tensor": {"dtype": "DT_INT32", "tensorShape": {"dim": [{"size": "1"}]}}}, "dtype": {"type": "DT_INT32"}}}, {"name": "StatefulPartitionedCall/model/tf.__operators__.add_6/y", "op": "Const", "attr": {"value": {"tensor": {"dtype": "DT_FLOAT", "tensorShape": {}}}, "dtype": {"type": "DT_FLOAT"}}}, {"name": "unknown_66", "op": "Const", "attr": {"value": {"tensor": {"dtype": "DT_FLOAT", "tensorShape": {"dim": [{"size": "1"}, {"size": "1"}, {"size": "32"}]}}}, "dtype": {"type": "DT_FLOAT"}}}, {"name": "unknown_64", "op": "Const", "attr": {"value": {"tensor": {"dtype": "DT_INT32", "tensorShape": {"dim": [{"size": "1"}]}}}, "dtype": {"type": "DT_INT32"}}}, {"name": "StatefulPartitionedCall/model/tf.math.add_60/Add/y", "op": "Const", "attr": {"dtype": {"type": "DT_FLOAT"}, "value": {"tensor": {"dtype": "DT_FLOAT", "tensorShape": {"dim": [{"size": "32"}]}}}}}, {"name": "StatefulPartitionedCall/model/tf.expand_dims_13/ExpandDims/dim", "op": "Const", "attr": {"value": {"tensor": {"dtype": "DT_INT64", "tensorShape": {}}}, "dtype": {"type": "DT_INT64"}}}, {"name": "unknown_61", "op": "Const", "attr": {"value": {"tensor": {"dtype": "DT_INT32", "tensorShape": {"dim": [{"size": "1"}]}}}, "dtype": {"type": "DT_INT32"}}}, {"name": "StatefulPartitionedCall/model/tf.__operators__.add_10/y", "op": "Const", "attr": {"value": {"tensor": {"dtype": "DT_FLOAT", "tensorShape": {}}}, "dtype": {"type": "DT_FLOAT"}}}, {"name": "unknown_65", "op": "Const", "attr": {"dtype": {"type": "DT_FLOAT"}, "value": {"tensor": {"dtype": "DT_FLOAT", "tensorShape": {"dim": [{"size": "1"}, {"size": "1"}, {"size": "32"}]}}}}}, {"name": "unknown_58", "op": "Const", "attr": {"value": {"tensor": {"dtype": "DT_INT32", "tensorShape": {"dim": [{"size": "1"}]}}}, "dtype": {"type": "DT_INT32"}}}, {"name": "StatefulPartitionedCall/model/tf.__operators__.add_9/y", "op": "Const", "attr": {"dtype": {"type": "DT_FLOAT"}, "value": {"tensor": {"dtype": "DT_FLOAT", "tensorShape": {}}}}}, {"name": "unknown_60", "op": "Const", "attr": {"dtype": {"type": "DT_FLOAT"}, "value": {"tensor": {"dtype": "DT_FLOAT", "tensorShape": {"dim": [{"size": "1"}, {"size": "1"}, {"size": "32"}]}}}}}, {"name": "StatefulPartitionedCall/model/tf.math.add_77/Add/y", "op": "Const", "attr": {"value": {"tensor": {"dtype": "DT_FLOAT", "tensorShape": {"dim": [{"size": "32"}]}}}, "dtype": {"type": "DT_FLOAT"}}}, {"name": "unknown_55", "op": "Const", "attr": {"value": {"tensor": {"dtype": "DT_INT32", "tensorShape": {"dim": [{"size": "1"}]}}}, "dtype": {"type": "DT_INT32"}}}, {"name": "StatefulPartitionedCall/model/tf.__operators__.add_8/y", "op": "Const", "attr": {"dtype": {"type": "DT_FLOAT"}, "value": {"tensor": {"dtype": "DT_FLOAT", "tensorShape": {}}}}}, {"name": "unknown_57", "op": "Const", "attr": {"value": {"tensor": {"dtype": "DT_FLOAT", "tensorShape": {"dim": [{"size": "1"}, {"size": "1"}, {"size": "32"}]}}}, "dtype": {"type": "DT_FLOAT"}}}, {"name": "StatefulPartitionedCall/model/tf.math.add_73/Add/y", "op": "Const", "attr": {"value": {"tensor": {"dtype": "DT_FLOAT", "tensorShape": {"dim": [{"size": "32"}]}}}, "dtype": {"type": "DT_FLOAT"}}}, {"name": "StatefulPartitionedCall/model/tf.expand_dims_14/ExpandDims/dim", "op": "Const", "attr": {"dtype": {"type": "DT_INT64"}, "value": {"tensor": {"dtype": "DT_INT64", "tensorShape": {}}}}}, {"name": "StatefulPartitionedCall/model/tf.expand_dims_15/ExpandDims/dim", "op": "Const", "attr": {"dtype": {"type": "DT_INT64"}, "value": {"tensor": {"dtype": "DT_INT64", "tensorShape": {}}}}}, {"name": "StatefulPartitionedCall/model/tf.where_3/SelectV2/t", "op": "Const", "attr": {"dtype": {"type": "DT_FLOAT"}, "value": {"tensor": {"dtype": "DT_FLOAT", "tensorShape": {"dim": [{"size": "1"}]}}}}}, {"name": "unknown_50", "op": "Const", "attr": {"dtype": {"type": "DT_INT32"}, "value": {"tensor": {"dtype": "DT_INT32", "tensorShape": {"dim": [{"size": "1"}]}}}}}, {"name": "StatefulPartitionedCall/model/tf.__operators__.add_7/y", "op": "Const", "attr": {"value": {"tensor": {"dtype": "DT_FLOAT", "tensorShape": {}}}, "dtype": {"type": "DT_FLOAT"}}}, {"name": "unknown_52", "op": "Const", "attr": {"dtype": {"type": "DT_FLOAT"}, "value": {"tensor": {"dtype": "DT_FLOAT", "tensorShape": {"dim": [{"size": "1"}, {"size": "1"}, {"size": "32"}]}}}}}, {"name": "StatefulPartitionedCall/model/tf.math.add_65/Add/y", "op": "Const", "attr": {"value": {"tensor": {"dtype": "DT_FLOAT", "tensorShape": {"dim": [{"size": "32"}]}}}, "dtype": {"type": "DT_FLOAT"}}}, {"name": "StatefulPartitionedCall/model/tf.linalg.matmul_23/MatMul/b", "op": "Const", "attr": {"dtype": {"type": "DT_FLOAT"}, "value": {"tensor": {"dtype": "DT_FLOAT", "tensorShape": {"dim": [{"size": "32"}, {"size": "32"}]}}}}}, {"name": "StatefulPartitionedCall/model/tf.math.add_62/Add/y", "op": "Const", "attr": {"value": {"tensor": {"dtype": "DT_FLOAT", "tensorShape": {"dim": [{"size": "32"}]}}}, "dtype": {"type": "DT_FLOAT"}}}, {"name": "StatefulPartitionedCall/model/tf.math.multiply_15/Mul/y", "op": "Const", "attr": {"dtype": {"type": "DT_FLOAT"}, "value": {"tensor": {"dtype": "DT_FLOAT", "tensorShape": {"dim": [{"size": "1"}, {"size": "1"}, {"size": "1"}]}}}}}, {"name": "StatefulPartitionedCall/model/tf.reshape_28/Reshape/shape", "op": "Const", "attr": {"dtype": {"type": "DT_INT32"}, "value": {"tensor": {"dtype": "DT_INT32", "tensorShape": {"dim": [{"size": "3"}]}}}}}, {"name": "StatefulPartitionedCall/model/tf.compat.v1.transpose_21/transpose/perm", "op": "Const", "attr": {"value": {"tensor": {"dtype": "DT_INT32", "tensorShape": {"dim": [{"size": "3"}]}}}, "dtype": {"type": "DT_INT32"}}}, {"name": "StatefulPartitionedCall/model/tf.math.add_61/Add/y", "op": "Const", "attr": {"dtype": {"type": "DT_FLOAT"}, "value": {"tensor": {"dtype": "DT_FLOAT", "tensorShape": {"dim": [{"size": "7"}, {"size": "1"}, {"size": "32"}]}}}}}, {"name": "StatefulPartitionedCall/model/tf.linalg.matmul_24/MatMul/b", "op": "Const", "attr": {"dtype": {"type": "DT_FLOAT"}, "value": {"tensor": {"dtype": "DT_FLOAT", "tensorShape": {"dim": [{"size": "32"}, {"size": "32"}]}}}}}, {"name": "StatefulPartitionedCall/model/tf.math.add_63/Add/y", "op": "Const", "attr": {"dtype": {"type": "DT_FLOAT"}, "value": {"tensor": {"dtype": "DT_FLOAT", "tensorShape": {"dim": [{"size": "32"}]}}}}}, {"name": "StatefulPartitionedCall/model/tf.reshape_29/Reshape/shape", "op": "Const", "attr": {"dtype": {"type": "DT_INT32"}, "value": {"tensor": {"dtype": "DT_INT32", "tensorShape": {"dim": [{"size": "3"}]}}}}}, {"name": "StatefulPartitionedCall/model/tf.compat.v1.transpose_22/transpose/perm", "op": "Const", "attr": {"dtype": {"type": "DT_INT32"}, "value": {"tensor": {"dtype": "DT_INT32", "tensorShape": {"dim": [{"size": "3"}]}}}}}, {"name": "unknown_48", "op": "Const", "attr": {"dtype": {"type": "DT_INT64"}, "value": {"tensor": {"dtype": "DT_INT64", "tensorShape": {"dim": [{"size": "2"}]}}}}}, {"name": "unknown_49", "op": "Const", "attr": {"value": {"tensor": {"dtype": "DT_INT64", "tensorShape": {"dim": [{"size": "3"}]}}}, "dtype": {"type": "DT_INT64"}}}, {"name": "unknown_45", "op": "Const", "attr": {"dtype": {"type": "DT_INT32"}, "value": {"tensor": {"dtype": "DT_INT32", "tensorShape": {"dim": [{"size": "1"}]}}}}}, {"name": "StatefulPartitionedCall/model/tf.__operators__.add_5/y", "op": "Const", "attr": {"dtype": {"type": "DT_FLOAT"}, "value": {"tensor": {"dtype": "DT_FLOAT", "tensorShape": {}}}}}, {"name": "unknown_47", "op": "Const", "attr": {"value": {"tensor": {"dtype": "DT_FLOAT", "tensorShape": {"dim": [{"size": "1"}, {"size": "1"}, {"size": "32"}]}}}, "dtype": {"type": "DT_FLOAT"}}}, {"name": "StatefulPartitionedCall/model/tf.math.add_57/Add/y", "op": "Const", "attr": {"value": {"tensor": {"dtype": "DT_FLOAT", "tensorShape": {"dim": [{"size": "32"}]}}}, "dtype": {"type": "DT_FLOAT"}}}, {"name": "unknown_42", "op": "Const", "attr": {"value": {"tensor": {"dtype": "DT_INT32", "tensorShape": {"dim": [{"size": "1"}]}}}, "dtype": {"type": "DT_INT32"}}}, {"name": "StatefulPartitionedCall/model/tf.__operators__.add_4/y", "op": "Const", "attr": {"value": {"tensor": {"dtype": "DT_FLOAT", "tensorShape": {}}}, "dtype": {"type": "DT_FLOAT"}}}, {"name": "unknown_44", "op": "Const", "attr": {"dtype": {"type": "DT_FLOAT"}, "value": {"tensor": {"dtype": "DT_FLOAT", "tensorShape": {"dim": [{"size": "1"}, {"size": "1"}, {"size": "32"}]}}}}}, {"name": "StatefulPartitionedCall/model/tf.expand_dims_1/ExpandDims/dim", "op": "Const", "attr": {"dtype": {"type": "DT_INT64"}, "value": {"tensor": {"dtype": "DT_INT64", "tensorShape": {}}}}}, {"name": "StatefulPartitionedCall/model/tf.expand_dims_2/ExpandDims/dim", "op": "Const", "attr": {"dtype": {"type": "DT_INT64"}, "value": {"tensor": {"dtype": "DT_INT64", "tensorShape": {}}}}}, {"name": "StatefulPartitionedCall/model/tf.where_2/SelectV2/t", "op": "Const", "attr": {"dtype": {"type": "DT_FLOAT"}, "value": {"tensor": {"dtype": "DT_FLOAT", "tensorShape": {"dim": [{"size": "1"}]}}}}}, {"name": "unknown_38", "op": "Const", "attr": {"dtype": {"type": "DT_FLOAT"}, "value": {"tensor": {"dtype": "DT_FLOAT", "tensorShape": {"dim": [{"size": "2"}, {"size": "7"}, {"size": "16"}]}}}}}, {"name": "StatefulPartitionedCall/model/tf.linalg.matmul_16/MatMul/b", "op": "Const", "attr": {"value": {"tensor": {"dtype": "DT_FLOAT", "tensorShape": {"dim": [{"size": "32"}, {"size": "32"}]}}}, "dtype": {"type": "DT_FLOAT"}}}, {"name": "StatefulPartitionedCall/model/tf.math.add_51/Add/y", "op": "Const", "attr": {"value": {"tensor": {"dtype": "DT_FLOAT", "tensorShape": {"dim": [{"size": "32"}]}}}, "dtype": {"type": "DT_FLOAT"}}}, {"name": "StatefulPartitionedCall/model/tf.reshape_21/Reshape/shape", "op": "Const", "attr": {"dtype": {"type": "DT_INT32"}, "value": {"tensor": {"dtype": "DT_INT32", "tensorShape": {"dim": [{"size": "3"}]}}}}}, {"name": "StatefulPartitionedCall/model/tf.compat.v1.transpose_18/transpose/perm", "op": "Const", "attr": {"dtype": {"type": "DT_INT32"}, "value": {"tensor": {"dtype": "DT_INT32", "tensorShape": {"dim": [{"size": "3"}]}}}}}, {"name": "StatefulPartitionedCall/model/tf.reshape_22/Reshape/shape", "op": "Const", "attr": {"dtype": {"type": "DT_INT32"}, "value": {"tensor": {"dtype": "DT_INT32", "tensorShape": {"dim": [{"size": "4"}]}}}}}, {"name": "unknown_39", "op": "Const", "attr": {"value": {"tensor": {"dtype": "DT_INT64", "tensorShape": {"dim": [{"size": "2"}]}}}, "dtype": {"type": "DT_INT64"}}}, {"name": "unknown_40", "op": "Const", "attr": {"value": {"tensor": {"dtype": "DT_INT64", "tensorShape": {"dim": [{"size": "3"}]}}}, "dtype": {"type": "DT_INT64"}}}, {"name": "StatefulPartitionedCall/model/tf.linalg.matmul_18/MatMul/b", "op": "Const", "attr": {"dtype": {"type": "DT_FLOAT"}, "value": {"tensor": {"dtype": "DT_FLOAT", "tensorShape": {"dim": [{"size": "32"}, {"size": "32"}]}}}}}, {"name": "StatefulPartitionedCall/model/tf.math.add_52/Add/y", "op": "Const", "attr": {"value": {"tensor": {"dtype": "DT_FLOAT", "tensorShape": {"dim": [{"size": "32"}]}}}, "dtype": {"type": "DT_FLOAT"}}}, {"name": "StatefulPartitionedCall/model/tf.reshape_26/Reshape/shape", "op": "Const", "attr": {"value": {"tensor": {"dtype": "DT_INT32", "tensorShape": {"dim": [{"size": "3"}]}}}, "dtype": {"type": "DT_INT32"}}}, {"name": "StatefulPartitionedCall/model/tf.compat.v1.transpose_19/transpose/perm", "op": "Const", "attr": {"dtype": {"type": "DT_INT32"}, "value": {"tensor": {"dtype": "DT_INT32", "tensorShape": {"dim": [{"size": "3"}]}}}}}, {"name": "StatefulPartitionedCall/model/tf.compat.v1.transpose_20/transpose/perm", "op": "Const", "attr": {"value": {"tensor": {"dtype": "DT_INT32", "tensorShape": {"dim": [{"size": "3"}]}}}, "dtype": {"type": "DT_INT32"}}}, {"name": "StatefulPartitionedCall/model/tf.reshape_27/Reshape/shape", "op": "Const", "attr": {"value": {"tensor": {"dtype": "DT_INT32", "tensorShape": {"dim": [{"size": "3"}]}}}, "dtype": {"type": "DT_INT32"}}}, {"name": "StatefulPartitionedCall/model/tf.linalg.matmul_20/MatMul/b", "op": "Const", "attr": {"dtype": {"type": "DT_FLOAT"}, "value": {"tensor": {"dtype": "DT_FLOAT", "tensorShape": {"dim": [{"size": "32"}, {"size": "32"}]}}}}}, {"name": "StatefulPartitionedCall/model/tf.math.add_53/Add", "op": "Const", "attr": {"value": {"tensor": {"dtype": "DT_FLOAT", "tensorShape": {"dim": [{"size": "7"}, {"size": "1"}, {"size": "32"}]}}}, "dtype": {"type": "DT_FLOAT"}}}, {"name": "unknown_43", "op": "Const", "attr": {"value": {"tensor": {"dtype": "DT_INT32", "tensorShape": {"dim": [{"size": "1"}]}}}, "dtype": {"type": "DT_INT32"}}}, {"name": "StatefulPartitionedCall/model/tf.math.add_55/Add/y", "op": "Const", "attr": {"value": {"tensor": {"dtype": "DT_FLOAT", "tensorShape": {"dim": [{"size": "32"}]}}}, "dtype": {"type": "DT_FLOAT"}}}, {"name": "StatefulPartitionedCall/model/tf.linalg.matmul_21/MatMul/b", "op": "Const", "attr": {"value": {"tensor": {"dtype": "DT_FLOAT", "tensorShape": {"dim": [{"size": "128"}, {"size": "32"}]}}}, "dtype": {"type": "DT_FLOAT"}}}, {"name": "StatefulPartitionedCall/model/tf.math.add_56/Add/y", "op": "Const", "attr": {"dtype": {"type": "DT_FLOAT"}, "value": {"tensor": {"dtype": "DT_FLOAT", "tensorShape": {"dim": [{"size": "128"}]}}}}}, {"name": "StatefulPartitionedCall/model/tf.linalg.matmul_22/MatMul/b", "op": "Const", "attr": {"dtype": {"type": "DT_FLOAT"}, "value": {"tensor": {"dtype": "DT_FLOAT", "tensorShape": {"dim": [{"size": "32"}, {"size": "128"}]}}}}}, {"name": "unknown_46", "op": "Const", "attr": {"dtype": {"type": "DT_INT32"}, "value": {"tensor": {"dtype": "DT_INT32", "tensorShape": {"dim": [{"size": "1"}]}}}}}, {"name": "StatefulPartitionedCall/model/tf.math.add_59/Add/y", "op": "Const", "attr": {"dtype": {"type": "DT_FLOAT"}, "value": {"tensor": {"dtype": "DT_FLOAT", "tensorShape": {"dim": [{"size": "32"}]}}}}}, {"name": "StatefulPartitionedCall/model/tf.linalg.matmul_26/MatMul/b", "op": "Const", "attr": {"value": {"tensor": {"dtype": "DT_FLOAT", "tensorShape": {"dim": [{"size": "32"}, {"size": "32"}]}}}, "dtype": {"type": "DT_FLOAT"}}}, {"name": "StatefulPartitionedCall/model/tf.math.add_64/Add/y", "op": "Const", "attr": {"value": {"tensor": {"dtype": "DT_FLOAT", "tensorShape": {"dim": [{"size": "32"}]}}}, "dtype": {"type": "DT_FLOAT"}}}, {"name": "StatefulPartitionedCall/model/tf.reshape_32/Reshape/shape", "op": "Const", "attr": {"dtype": {"type": "DT_INT32"}, "value": {"tensor": {"dtype": "DT_INT32", "tensorShape": {"dim": [{"size": "3"}]}}}}}, {"name": "StatefulPartitionedCall/model/tf.compat.v1.transpose_23/transpose/perm", "op": "Const", "attr": {"dtype": {"type": "DT_INT32"}, "value": {"tensor": {"dtype": "DT_INT32", "tensorShape": {"dim": [{"size": "3"}]}}}}}, {"name": "StatefulPartitionedCall/model/tf.compat.v1.transpose_24/transpose/perm", "op": "Const", "attr": {"value": {"tensor": {"dtype": "DT_INT32", "tensorShape": {"dim": [{"size": "3"}]}}}, "dtype": {"type": "DT_INT32"}}}, {"name": "StatefulPartitionedCall/model/tf.reshape_33/Reshape/shape", "op": "Const", "attr": {"dtype": {"type": "DT_INT32"}, "value": {"tensor": {"dtype": "DT_INT32", "tensorShape": {"dim": [{"size": "3"}]}}}}}, {"name": "StatefulPartitionedCall/model/tf.linalg.matmul_28/MatMul/b", "op": "Const", "attr": {"value": {"tensor": {"dtype": "DT_FLOAT", "tensorShape": {"dim": [{"size": "32"}, {"size": "32"}]}}}, "dtype": {"type": "DT_FLOAT"}}}, {"name": "unknown_51", "op": "Const", "attr": {"dtype": {"type": "DT_INT32"}, "value": {"tensor": {"dtype": "DT_INT32", "tensorShape": {"dim": [{"size": "1"}]}}}}}, {"name": "StatefulPartitionedCall/model/tf.math.add_67/Add/y", "op": "Const", "attr": {"dtype": {"type": "DT_FLOAT"}, "value": {"tensor": {"dtype": "DT_FLOAT", "tensorShape": {"dim": [{"size": "32"}]}}}}}, {"name": "StatefulPartitionedCall/model/tf.math.add_68/Add/y", "op": "Const", "attr": {"dtype": {"type": "DT_FLOAT"}, "value": {"tensor": {"dtype": "DT_FLOAT", "tensorShape": {"dim": [{"size": "7"}, {"size": "1"}, {"size": "32"}]}}}}}, {"name": "StatefulPartitionedCall/model/tf.linalg.matmul_29/MatMul/b", "op": "Const", "attr": {"value": {"tensor": {"dtype": "DT_FLOAT", "tensorShape": {"dim": [{"size": "32"}, {"size": "32"}]}}}, "dtype": {"type": "DT_FLOAT"}}}, {"name": "StatefulPartitionedCall/model/tf.math.add_69/Add/y", "op": "Const", "attr": {"value": {"tensor": {"dtype": "DT_FLOAT", "tensorShape": {"dim": [{"size": "32"}]}}}, "dtype": {"type": "DT_FLOAT"}}}, {"name": "StatefulPartitionedCall/model/tf.math.multiply_17/Mul/y", "op": "Const", "attr": {"dtype": {"type": "DT_FLOAT"}, "value": {"tensor": {"dtype": "DT_FLOAT", "tensorShape": {"dim": [{"size": "1"}, {"size": "1"}, {"size": "1"}]}}}}}, {"name": "StatefulPartitionedCall/model/tf.reshape_34/Reshape/shape", "op": "Const", "attr": {"dtype": {"type": "DT_INT32"}, "value": {"tensor": {"dtype": "DT_INT32", "tensorShape": {"dim": [{"size": "3"}]}}}}}, {"name": "StatefulPartitionedCall/model/tf.compat.v1.transpose_25/transpose/perm", "op": "Const", "attr": {"dtype": {"type": "DT_INT32"}, "value": {"tensor": {"dtype": "DT_INT32", "tensorShape": {"dim": [{"size": "3"}]}}}}}, {"name": "StatefulPartitionedCall/model/tf.linalg.matmul_30/MatMul/b", "op": "Const", "attr": {"dtype": {"type": "DT_FLOAT"}, "value": {"tensor": {"dtype": "DT_FLOAT", "tensorShape": {"dim": [{"size": "32"}, {"size": "32"}]}}}}}, {"name": "StatefulPartitionedCall/model/tf.math.add_71/Add/y", "op": "Const", "attr": {"dtype": {"type": "DT_FLOAT"}, "value": {"tensor": {"dtype": "DT_FLOAT", "tensorShape": {"dim": [{"size": "32"}]}}}}}, {"name": "StatefulPartitionedCall/model/tf.reshape_35/Reshape/shape", "op": "Const", "attr": {"dtype": {"type": "DT_INT32"}, "value": {"tensor": {"dtype": "DT_INT32", "tensorShape": {"dim": [{"size": "3"}]}}}}}, {"name": "StatefulPartitionedCall/model/tf.compat.v1.transpose_26/transpose/perm", "op": "Const", "attr": {"dtype": {"type": "DT_INT32"}, "value": {"tensor": {"dtype": "DT_INT32", "tensorShape": {"dim": [{"size": "3"}]}}}}}, {"name": "StatefulPartitionedCall/model/tf.reshape_36/Reshape/shape", "op": "Const", "attr": {"dtype": {"type": "DT_INT32"}, "value": {"tensor": {"dtype": "DT_INT32", "tensorShape": {"dim": [{"size": "4"}]}}}}}, {"name": "unknown_53", "op": "Const", "attr": {"value": {"tensor": {"dtype": "DT_INT64", "tensorShape": {"dim": [{"size": "2"}]}}}, "dtype": {"type": "DT_INT64"}}}, {"name": "unknown_54", "op": "Const", "attr": {"value": {"tensor": {"dtype": "DT_INT64", "tensorShape": {"dim": [{"size": "3"}]}}}, "dtype": {"type": "DT_INT64"}}}, {"name": "unknown_37", "op": "Const", "attr": {"value": {"tensor": {"dtype": "DT_FLOAT", "tensorShape": {"dim": [{"size": "1"}, {"size": "1"}, {"size": "32"}]}}}, "dtype": {"type": "DT_FLOAT"}}}, {"name": "unknown_35", "op": "Const", "attr": {"dtype": {"type": "DT_INT32"}, "value": {"tensor": {"dtype": "DT_INT32", "tensorShape": {"dim": [{"size": "1"}]}}}}}, {"name": "StatefulPartitionedCall/model/tf.__operators__.add_3/y", "op": "Const", "attr": {"value": {"tensor": {"dtype": "DT_FLOAT", "tensorShape": {}}}, "dtype": {"type": "DT_FLOAT"}}}, {"name": "StatefulPartitionedCall/model/tf.math.add_47/Add/y", "op": "Const", "attr": {"value": {"tensor": {"dtype": "DT_FLOAT", "tensorShape": {"dim": [{"size": "32"}]}}}, "dtype": {"type": "DT_FLOAT"}}}, {"name": "unknown_34", "op": "Const", "attr": {"value": {"tensor": {"dtype": "DT_FLOAT", "tensorShape": {"dim": [{"size": "1"}, {"size": "1"}, {"size": "32"}]}}}, "dtype": {"type": "DT_FLOAT"}}}, {"name": "unknown_32", "op": "Const", "attr": {"dtype": {"type": "DT_INT32"}, "value": {"tensor": {"dtype": "DT_INT32", "tensorShape": {"dim": [{"size": "1"}]}}}}}, {"name": "StatefulPartitionedCall/model/tf.__operators__.add_2/y", "op": "Const", "attr": {"dtype": {"type": "DT_FLOAT"}, "value": {"tensor": {"dtype": "DT_FLOAT", "tensorShape": {}}}}}, {"name": "StatefulPartitionedCall/model/tf.math.add_43/Add/y", "op": "Const", "attr": {"value": {"tensor": {"dtype": "DT_FLOAT", "tensorShape": {"dim": [{"size": "32"}]}}}, "dtype": {"type": "DT_FLOAT"}}}, {"name": "StatefulPartitionedCall/model/tf.linalg.matmul_11/MatMul/b", "op": "Const", "attr": {"value": {"tensor": {"dtype": "DT_FLOAT", "tensorShape": {"dim": [{"size": "32"}, {"size": "32"}]}}}, "dtype": {"type": "DT_FLOAT"}}}, {"name": "StatefulPartitionedCall/model/tf.math.add_42/Add/y", "op": "Const", "attr": {"value": {"tensor": {"dtype": "DT_FLOAT", "tensorShape": {"dim": [{"size": "32"}]}}}, "dtype": {"type": "DT_FLOAT"}}}, {"name": "StatefulPartitionedCall/model/tf.reshape_19/Reshape/shape", "op": "Const", "attr": {"dtype": {"type": "DT_INT32"}, "value": {"tensor": {"dtype": "DT_INT32", "tensorShape": {"dim": [{"size": "3"}]}}}}}, {"name": "StatefulPartitionedCall/model/tf.compat.v1.transpose_16/transpose/perm", "op": "Const", "attr": {"dtype": {"type": "DT_INT32"}, "value": {"tensor": {"dtype": "DT_INT32", "tensorShape": {"dim": [{"size": "3"}]}}}}}, {"name": "StatefulPartitionedCall/model/tf.compat.v1.transpose_17/transpose/perm", "op": "Const", "attr": {"dtype": {"type": "DT_INT32"}, "value": {"tensor": {"dtype": "DT_INT32", "tensorShape": {"dim": [{"size": "3"}]}}}}}, {"name": "StatefulPartitionedCall/model/tf.reshape_20/Reshape/shape", "op": "Const", "attr": {"value": {"tensor": {"dtype": "DT_INT32", "tensorShape": {"dim": [{"size": "3"}]}}}, "dtype": {"type": "DT_INT32"}}}, {"name": "StatefulPartitionedCall/model/tf.linalg.matmul_13/MatMul/b", "op": "Const", "attr": {"value": {"tensor": {"dtype": "DT_FLOAT", "tensorShape": {"dim": [{"size": "32"}, {"size": "32"}]}}}, "dtype": {"type": "DT_FLOAT"}}}, {"name": "unknown_33", "op": "Const", "attr": {"dtype": {"type": "DT_INT32"}, "value": {"tensor": {"dtype": "DT_INT32", "tensorShape": {"dim": [{"size": "1"}]}}}}}, {"name": "StatefulPartitionedCall/model/tf.math.add_45/Add/y", "op": "Const", "attr": {"dtype": {"type": "DT_FLOAT"}, "value": {"tensor": {"dtype": "DT_FLOAT", "tensorShape": {"dim": [{"size": "32"}]}}}}}, {"name": "StatefulPartitionedCall/model/tf.linalg.matmul_14/MatMul/b", "op": "Const", "attr": {"dtype": {"type": "DT_FLOAT"}, "value": {"tensor": {"dtype": "DT_FLOAT", "tensorShape": {"dim": [{"size": "128"}, {"size": "32"}]}}}}}, {"name": "StatefulPartitionedCall/model/tf.math.add_46/Add/y", "op": "Const", "attr": {"value": {"tensor": {"dtype": "DT_FLOAT", "tensorShape": {"dim": [{"size": "128"}]}}}, "dtype": {"type": "DT_FLOAT"}}}, {"name": "StatefulPartitionedCall/model/tf.linalg.matmul_15/MatMul/b", "op": "Const", "attr": {"value": {"tensor": {"dtype": "DT_FLOAT", "tensorShape": {"dim": [{"size": "32"}, {"size": "128"}]}}}, "dtype": {"type": "DT_FLOAT"}}}, {"name": "unknown_36", "op": "Const", "attr": {"value": {"tensor": {"dtype": "DT_INT32", "tensorShape": {"dim": [{"size": "1"}]}}}, "dtype": {"type": "DT_INT32"}}}, {"name": "StatefulPartitionedCall/model/tf.math.add_49/Add/y", "op": "Const", "attr": {"dtype": {"type": "DT_FLOAT"}, "value": {"tensor": {"dtype": "DT_FLOAT", "tensorShape": {"dim": [{"size": "32"}]}}}}}, {"name": "StatefulPartitionedCall/model/tf.linalg.matmul_32/MatMul/b", "op": "Const", "attr": {"value": {"tensor": {"dtype": "DT_FLOAT", "tensorShape": {"dim": [{"size": "32"}, {"size": "32"}]}}}, "dtype": {"type": "DT_FLOAT"}}}, {"name": "StatefulPartitionedCall/model/tf.math.add_72/Add/y", "op": "Const", "attr": {"value": {"tensor": {"dtype": "DT_FLOAT", "tensorShape": {"dim": [{"size": "32"}]}}}, "dtype": {"type": "DT_FLOAT"}}}, {"name": "StatefulPartitionedCall/model/tf.reshape_40/Reshape/shape", "op": "Const", "attr": {"dtype": {"type": "DT_INT32"}, "value": {"tensor": {"dtype": "DT_INT32", "tensorShape": {"dim": [{"size": "3"}]}}}}}, {"name": "StatefulPartitionedCall/model/tf.compat.v1.transpose_27/transpose/perm", "op": "Const", "attr": {"dtype": {"type": "DT_INT32"}, "value": {"tensor": {"dtype": "DT_INT32", "tensorShape": {"dim": [{"size": "3"}]}}}}}, {"name": "StatefulPartitionedCall/model/tf.compat.v1.transpose_28/transpose/perm", "op": "Const", "attr": {"dtype": {"type": "DT_INT32"}, "value": {"tensor": {"dtype": "DT_INT32", "tensorShape": {"dim": [{"size": "3"}]}}}}}, {"name": "StatefulPartitionedCall/model/tf.reshape_41/Reshape/shape", "op": "Const", "attr": {"dtype": {"type": "DT_INT32"}, "value": {"tensor": {"dtype": "DT_INT32", "tensorShape": {"dim": [{"size": "3"}]}}}}}, {"name": "StatefulPartitionedCall/model/tf.linalg.matmul_34/MatMul/b", "op": "Const", "attr": {"value": {"tensor": {"dtype": "DT_FLOAT", "tensorShape": {"dim": [{"size": "32"}, {"size": "32"}]}}}, "dtype": {"type": "DT_FLOAT"}}}, {"name": "unknown_56", "op": "Const", "attr": {"value": {"tensor": {"dtype": "DT_INT32", "tensorShape": {"dim": [{"size": "1"}]}}}, "dtype": {"type": "DT_INT32"}}}, {"name": "StatefulPartitionedCall/model/tf.math.add_75/Add/y", "op": "Const", "attr": {"dtype": {"type": "DT_FLOAT"}, "value": {"tensor": {"dtype": "DT_FLOAT", "tensorShape": {"dim": [{"size": "32"}]}}}}}, {"name": "StatefulPartitionedCall/model/tf.linalg.matmul_35/MatMul/b", "op": "Const", "attr": {"dtype": {"type": "DT_FLOAT"}, "value": {"tensor": {"dtype": "DT_FLOAT", "tensorShape": {"dim": [{"size": "128"}, {"size": "32"}]}}}}}, {"name": "StatefulPartitionedCall/model/tf.math.add_76/Add/y", "op": "Const", "attr": {"dtype": {"type": "DT_FLOAT"}, "value": {"tensor": {"dtype": "DT_FLOAT", "tensorShape": {"dim": [{"size": "128"}]}}}}}, {"name": "StatefulPartitionedCall/model/tf.linalg.matmul_36/MatMul/b", "op": "Const", "attr": {"dtype": {"type": "DT_FLOAT"}, "value": {"tensor": {"dtype": "DT_FLOAT", "tensorShape": {"dim": [{"size": "32"}, {"size": "128"}]}}}}}, {"name": "unknown_59", "op": "Const", "attr": {"value": {"tensor": {"dtype": "DT_INT32", "tensorShape": {"dim": [{"size": "1"}]}}}, "dtype": {"type": "DT_INT32"}}}, {"name": "StatefulPartitionedCall/model/tf.math.add_79/Add/y", "op": "Const", "attr": {"dtype": {"type": "DT_FLOAT"}, "value": {"tensor": {"dtype": "DT_FLOAT", "tensorShape": {"dim": [{"size": "32"}]}}}}}, {"name": "unknown_63", "op": "Const", "attr": {"value": {"tensor": {"dtype": "DT_INT32", "tensorShape": {"dim": [{"size": "1"}]}}}, "dtype": {"type": "DT_INT32"}}}, {"name": "StatefulPartitionedCall/model/tf.math.add_80/Add/y", "op": "Const", "attr": {"dtype": {"type": "DT_FLOAT"}, "value": {"tensor": {"dtype": "DT_FLOAT", "tensorShape": {"dim": [{"size": "32"}]}}}}}, {"name": "StatefulPartitionedCall/model/tf.expand_dims_16/ExpandDims/dim", "op": "Const", "attr": {"value": {"tensor": {"dtype": "DT_INT64", "tensorShape": {}}}, "dtype": {"type": "DT_INT64"}}}, {"name": "StatefulPartitionedCall/model/tf.concat_3/concat/axis", "op": "Const", "attr": {"dtype": {"type": "DT_INT32"}, "value": {"tensor": {"dtype": "DT_INT32", "tensorShape": {}}}}}, {"name": "StatefulPartitionedCall/model/tf.compat.v1.transpose_29/transpose/perm", "op": "Const", "attr": {"dtype": {"type": "DT_INT32"}, "value": {"tensor": {"dtype": "DT_INT32", "tensorShape": {"dim": [{"size": "4"}]}}}}}, {"name": "StatefulPartitionedCall/model/tf.linalg.matmul_43/MatMul/b", "op": "Const", "attr": {"dtype": {"type": "DT_FLOAT"}, "value": {"tensor": {"dtype": "DT_FLOAT", "tensorShape": {"dim": [{"size": "2"}, {"size": "32"}]}}}}}, {"name": "StatefulPartitionedCall/model/tf.math.add_87/Add/y", "op": "Const", "attr": {"dtype": {"type": "DT_FLOAT"}, "value": {"tensor": {"dtype": "DT_FLOAT", "tensorShape": {"dim": [{"size": "2"}]}}}}}, {"name": "StatefulPartitionedCall/model/tf.compat.v1.gather_3/GatherV2/indices", "op": "Const", "attr": {"value": {"tensor": {"dtype": "DT_INT32", "tensorShape": {"dim": [{"size": "1"}]}}}, "dtype": {"type": "DT_INT32"}}}, {"name": "StatefulPartitionedCall/model/tf.compat.v1.gather_3/GatherV2/axis", "op": "Const", "attr": {"value": {"tensor": {"dtype": "DT_INT32", "tensorShape": {}}}, "dtype": {"type": "DT_INT32"}}}, {"name": "StatefulPartitionedCall/model/tf.__operators__.getitem_1/strided_slice/stack", "op": "Const", "attr": {"value": {"tensor": {"dtype": "DT_INT32", "tensorShape": {"dim": [{"size": "1"}]}}}, "dtype": {"type": "DT_INT32"}}}, {"name": "StatefulPartitionedCall/model/tf.__operators__.getitem_1/strided_slice/stack_1", "op": "Const", "attr": {"dtype": {"type": "DT_INT32"}, "value": {"tensor": {"dtype": "DT_INT32", "tensorShape": {"dim": [{"size": "1"}]}}}}}, {"name": "StatefulPartitionedCall/model/tf.__operators__.getitem_1/strided_slice/stack_2", "op": "Const", "attr": {"value": {"tensor": {"dtype": "DT_INT32", "tensorShape": {"dim": [{"size": "1"}]}}}, "dtype": {"type": "DT_INT32"}}}, {"name": "StatefulPartitionedCall/model/tf.expand_dims_11/ExpandDims/dim", "op": "Const", "attr": {"dtype": {"type": "DT_INT64"}, "value": {"tensor": {"dtype": "DT_INT64", "tensorShape": {}}}}}, {"name": "StatefulPartitionedCall/model/tf.expand_dims_12/ExpandDims/dim", "op": "Const", "attr": {"dtype": {"type": "DT_INT64"}, "value": {"tensor": {"dtype": "DT_INT64", "tensorShape": {}}}}}, {"name": "StatefulPartitionedCall/model/tf.where_1/SelectV2/t", "op": "Const", "attr": {"value": {"tensor": {"dtype": "DT_FLOAT", "tensorShape": {"dim": [{"size": "1"}]}}}, "dtype": {"type": "DT_FLOAT"}}}, {"name": "StatefulPartitionedCall/model/tf.linalg.matmul_8/MatMul/b", "op": "Const", "attr": {"value": {"tensor": {"dtype": "DT_FLOAT", "tensorShape": {"dim": [{"size": "32"}, {"size": "32"}]}}}, "dtype": {"type": "DT_FLOAT"}}}, {"name": "StatefulPartitionedCall/model/tf.math.add_40/Add/y", "op": "Const", "attr": {"dtype": {"type": "DT_FLOAT"}, "value": {"tensor": {"dtype": "DT_FLOAT", "tensorShape": {"dim": [{"size": "32"}]}}}}}, {"name": "StatefulPartitionedCall/model/tf.math.multiply_9/Mul/y", "op": "Const", "attr": {"dtype": {"type": "DT_FLOAT"}, "value": {"tensor": {"dtype": "DT_FLOAT", "tensorShape": {"dim": [{"size": "1"}, {"size": "1"}, {"size": "1"}]}}}}}, {"name": "StatefulPartitionedCall/model/tf.reshape_13/Reshape/shape", "op": "Const", "attr": {"dtype": {"type": "DT_INT32"}, "value": {"tensor": {"dtype": "DT_INT32", "tensorShape": {"dim": [{"size": "3"}]}}}}}, {"name": "StatefulPartitionedCall/model/tf.compat.v1.transpose_14/transpose/perm", "op": "Const", "attr": {"value": {"tensor": {"dtype": "DT_INT32", "tensorShape": {"dim": [{"size": "3"}]}}}, "dtype": {"type": "DT_INT32"}}}, {"name": "unknown_29", "op": "Const", "attr": {"value": {"tensor": {"dtype": "DT_FLOAT", "tensorShape": {"dim": [{"size": "1"}, {"size": "1"}, {"size": "32"}]}}}, "dtype": {"type": "DT_FLOAT"}}}, {"name": "unknown_27", "op": "Const", "attr": {"value": {"tensor": {"dtype": "DT_INT32", "tensorShape": {"dim": [{"size": "1"}]}}}, "dtype": {"type": "DT_INT32"}}}, {"name": "StatefulPartitionedCall/model/tf.__operators__.add_1/y", "op": "Const", "attr": {"value": {"tensor": {"dtype": "DT_FLOAT", "tensorShape": {}}}, "dtype": {"type": "DT_FLOAT"}}}, {"name": "StatefulPartitionedCall/model/tf.math.add_36/Add/y", "op": "Const", "attr": {"value": {"tensor": {"dtype": "DT_FLOAT", "tensorShape": {"dim": [{"size": "32"}]}}}, "dtype": {"type": "DT_FLOAT"}}}, {"name": "unknown_26", "op": "Const", "attr": {"value": {"tensor": {"dtype": "DT_FLOAT", "tensorShape": {"dim": [{"size": "1"}, {"size": "1"}, {"size": "32"}]}}}, "dtype": {"type": "DT_FLOAT"}}}, {"name": "unknown_24", "op": "Const", "attr": {"value": {"tensor": {"dtype": "DT_INT32", "tensorShape": {"dim": [{"size": "1"}]}}}, "dtype": {"type": "DT_INT32"}}}, {"name": "StatefulPartitionedCall/model/tf.__operators__.add/y", "op": "Const", "attr": {"value": {"tensor": {"dtype": "DT_FLOAT", "tensorShape": {}}}, "dtype": {"type": "DT_FLOAT"}}}, {"name": "StatefulPartitionedCall/model/tf.math.add_32/Add/y", "op": "Const", "attr": {"dtype": {"type": "DT_FLOAT"}, "value": {"tensor": {"dtype": "DT_FLOAT", "tensorShape": {"dim": [{"size": "32"}]}}}}}, {"name": "StatefulPartitionedCall/model/tf.reshape/Reshape/shape", "op": "Const", "attr": {"value": {"tensor": {"dtype": "DT_INT32", "tensorShape": {"dim": [{"size": "2"}]}}}, "dtype": {"type": "DT_INT32"}}}, {"name": "StatefulPartitionedCall/model/tf.expand_dims_3/ExpandDims/dim", "op": "Const", "attr": {"dtype": {"type": "DT_INT64"}, "value": {"tensor": {"dtype": "DT_INT64", "tensorShape": {}}}}}, {"name": "StatefulPartitionedCall/model/tf.expand_dims_4/ExpandDims/dim", "op": "Const", "attr": {"dtype": {"type": "DT_INT64"}, "value": {"tensor": {"dtype": "DT_INT64", "tensorShape": {}}}}}, {"name": "StatefulPartitionedCall/model/tf.where/SelectV2/t", "op": "Const", "attr": {"dtype": {"type": "DT_FLOAT"}, "value": {"tensor": {"dtype": "DT_FLOAT", "tensorShape": {"dim": [{"size": "1"}]}}}}}, {"name": "StatefulPartitionedCall/model/tf.linalg.matmul/MatMul/b", "op": "Const", "attr": {"value": {"tensor": {"dtype": "DT_FLOAT", "tensorShape": {"dim": [{"size": "32"}, {"size": "32"}]}}}, "dtype": {"type": "DT_FLOAT"}}}, {"name": "StatefulPartitionedCall/model/tf.math.add_29/Add/y", "op": "Const", "attr": {"dtype": {"type": "DT_FLOAT"}, "value": {"tensor": {"dtype": "DT_FLOAT", "tensorShape": {"dim": [{"size": "32"}]}}}}}, {"name": "StatefulPartitionedCall/model/tf.math.multiply_6/Mul/y", "op": "Const", "attr": {"dtype": {"type": "DT_FLOAT"}, "value": {"tensor": {"dtype": "DT_FLOAT", "tensorShape": {"dim": [{"size": "1"}, {"size": "1"}, {"size": "1"}]}}}}}, {"name": "StatefulPartitionedCall/model/tf.reshape_5/Reshape/shape", "op": "Const", "attr": {"value": {"tensor": {"dtype": "DT_INT32", "tensorShape": {"dim": [{"size": "3"}]}}}, "dtype": {"type": "DT_INT32"}}}, {"name": "StatefulPartitionedCall/model/tf.compat.v1.transpose_10/transpose/perm", "op": "Const", "attr": {"dtype": {"type": "DT_INT32"}, "value": {"tensor": {"dtype": "DT_INT32", "tensorShape": {"dim": [{"size": "3"}]}}}}}, {"name": "StatefulPartitionedCall/model/tf.strided_slice_1/StridedSlice/begin", "op": "Const", "attr": {"value": {"tensor": {"dtype": "DT_INT64", "tensorShape": {"dim": [{"size": "4"}]}}}, "dtype": {"type": "DT_INT64"}}}, {"name": "StatefulPartitionedCall/model/tf.strided_slice_1/StridedSlice/end", "op": "Const", "attr": {"value": {"tensor": {"dtype": "DT_INT64", "tensorShape": {"dim": [{"size": "4"}]}}}, "dtype": {"type": "DT_INT64"}}}, {"name": "StatefulPartitionedCall/model/tf.strided_slice_1/StridedSlice/strides", "op": "Const", "attr": {"dtype": {"type": "DT_INT64"}, "value": {"tensor": {"dtype": "DT_INT64", "tensorShape": {"dim": [{"size": "4"}]}}}}}, {"name": "StatefulPartitionedCall/model/tf.compat.v1.transpose_3/transpose/perm", "op": "Const", "attr": {"value": {"tensor": {"dtype": "DT_INT32", "tensorShape": {"dim": [{"size": "4"}]}}}, "dtype": {"type": "DT_INT32"}}}, {"name": "StatefulPartitionedCall/model/tf.expand_dims_6/ExpandDims/dim", "op": "Const", "attr": {"dtype": {"type": "DT_INT64"}, "value": {"tensor": {"dtype": "DT_INT64", "tensorShape": {}}}}}, {"name": "StatefulPartitionedCall/model/tf.math.multiply_1/Mul/y", "op": "Const", "attr": {"value": {"tensor": {"dtype": "DT_FLOAT", "tensorShape": {"dim": [{"size": "1"}, {"size": "1"}, {"size": "1"}]}}}, "dtype": {"type": "DT_FLOAT"}}}, {"name": "unknown_14", "op": "Const", "attr": {"value": {"tensor": {"dtype": "DT_INT32", "tensorShape": {}}}, "dtype": {"type": "DT_INT32"}}}, {"name": "StatefulPartitionedCall/model/tf.strided_slice/StridedSlice/begin", "op": "Const", "attr": {"value": {"tensor": {"dtype": "DT_INT64", "tensorShape": {"dim": [{"size": "3"}]}}}, "dtype": {"type": "DT_INT64"}}}, {"name": "StatefulPartitionedCall/model/tf.strided_slice/StridedSlice/end", "op": "Const", "attr": {"value": {"tensor": {"dtype": "DT_INT64", "tensorShape": {"dim": [{"size": "3"}]}}}, "dtype": {"type": "DT_INT64"}}}, {"name": "StatefulPartitionedCall/model/tf.strided_slice/StridedSlice/strides", "op": "Const", "attr": {"dtype": {"type": "DT_INT64"}, "value": {"tensor": {"dtype": "DT_INT64", "tensorShape": {"dim": [{"size": "3"}]}}}}}, {"name": "StatefulPartitionedCall/model/tf.math.add_26/Add/y", "op": "Const", "attr": {"dtype": {"type": "DT_FLOAT"}, "value": {"tensor": {"dtype": "DT_FLOAT", "tensorShape": {"dim": [{"size": "1"}, {"size": "1"}, {"size": "1"}]}}}}}, {"name": "StatefulPartitionedCall/model/tf.expand_dims_5/ExpandDims/dim", "op": "Const", "attr": {"value": {"tensor": {"dtype": "DT_INT64", "tensorShape": {}}}, "dtype": {"type": "DT_INT64"}}}, {"name": "unknown_19", "op": "Const", "attr": {"value": {"tensor": {"dtype": "DT_FLOAT", "tensorShape": {"dim": [{"size": "1"}, {"size": "1"}, {"size": "1"}, {"size": "16"}]}}}, "dtype": {"type": "DT_FLOAT"}}}, {"name": "StatefulPartitionedCall/model/tf.compat.v1.transpose_2/transpose/perm", "op": "Const", "attr": {"value": {"tensor": {"dtype": "DT_INT32", "tensorShape": {"dim": [{"size": "4"}]}}}, "dtype": {"type": "DT_INT32"}}}, {"name": "StatefulPartitionedCall/model/tf.strided_slice_2/StridedSlice/begin", "op": "Const", "attr": {"dtype": {"type": "DT_INT64"}, "value": {"tensor": {"dtype": "DT_INT64", "tensorShape": {"dim": [{"size": "4"}]}}}}}, {"name": "StatefulPartitionedCall/model/tf.strided_slice_2/StridedSlice/end", "op": "Const", "attr": {"value": {"tensor": {"dtype": "DT_INT64", "tensorShape": {"dim": [{"size": "4"}]}}}, "dtype": {"type": "DT_INT64"}}}, {"name": "StatefulPartitionedCall/model/tf.strided_slice_2/StridedSlice/strides", "op": "Const", "attr": {"dtype": {"type": "DT_INT64"}, "value": {"tensor": {"dtype": "DT_INT64", "tensorShape": {"dim": [{"size": "4"}]}}}}}, {"name": "StatefulPartitionedCall/model/tf.compat.v1.transpose_4/transpose/perm", "op": "Const", "attr": {"dtype": {"type": "DT_INT32"}, "value": {"tensor": {"dtype": "DT_INT32", "tensorShape": {"dim": [{"size": "4"}]}}}}}, {"name": "StatefulPartitionedCall/model/tf.expand_dims_7/ExpandDims/dim", "op": "Const", "attr": {"dtype": {"type": "DT_INT64"}, "value": {"tensor": {"dtype": "DT_INT64", "tensorShape": {}}}}}, {"name": "StatefulPartitionedCall/model/tf.concat/concat/axis", "op": "Const", "attr": {"value": {"tensor": {"dtype": "DT_INT32", "tensorShape": {}}}, "dtype": {"type": "DT_INT32"}}}, {"name": "StatefulPartitionedCall/model/tf.reshape_2/Reshape/shape", "op": "Const", "attr": {"value": {"tensor": {"dtype": "DT_INT32", "tensorShape": {"dim": [{"size": "4"}]}}}, "dtype": {"type": "DT_INT32"}}}, {"name": "StatefulPartitionedCall/model/tf.strided_slice_4/StridedSlice/begin", "op": "Const", "attr": {"dtype": {"type": "DT_INT64"}, "value": {"tensor": {"dtype": "DT_INT64", "tensorShape": {"dim": [{"size": "4"}]}}}}}, {"name": "StatefulPartitionedCall/model/tf.strided_slice_4/StridedSlice/end", "op": "Const", "attr": {"dtype": {"type": "DT_INT64"}, "value": {"tensor": {"dtype": "DT_INT64", "tensorShape": {"dim": [{"size": "4"}]}}}}}, {"name": "StatefulPartitionedCall/model/tf.strided_slice_4/StridedSlice/strides", "op": "Const", "attr": {"dtype": {"type": "DT_INT64"}, "value": {"tensor": {"dtype": "DT_INT64", "tensorShape": {"dim": [{"size": "4"}]}}}}}, {"name": "StatefulPartitionedCall/model/tf.compat.v1.transpose_6/transpose/perm", "op": "Const", "attr": {"value": {"tensor": {"dtype": "DT_INT32", "tensorShape": {"dim": [{"size": "4"}]}}}, "dtype": {"type": "DT_INT32"}}}, {"name": "StatefulPartitionedCall/model/tf.expand_dims_9/ExpandDims/dim", "op": "Const", "attr": {"dtype": {"type": "DT_INT64"}, "value": {"tensor": {"dtype": "DT_INT64", "tensorShape": {}}}}}, {"name": "StatefulPartitionedCall/model/tf.math.multiply_4/Mul/y", "op": "Const", "attr": {"dtype": {"type": "DT_FLOAT"}, "value": {"tensor": {"dtype": "DT_FLOAT", "tensorShape": {"dim": [{"size": "1"}, {"size": "1"}, {"size": "1"}]}}}}}, {"name": "StatefulPartitionedCall/model/tf.compat.v1.gather/GatherV2/indices", "op": "Const", "attr": {"dtype": {"type": "DT_INT32"}, "value": {"tensor": {"dtype": "DT_INT32", "tensorShape": {"dim": [{"size": "1"}]}}}}}, {"name": "StatefulPartitionedCall/model/tf.compat.v1.gather/GatherV2/axis", "op": "Const", "attr": {"dtype": {"type": "DT_INT32"}, "value": {"tensor": {"dtype": "DT_INT32", "tensorShape": {}}}}}, {"name": "StatefulPartitionedCall/model/tf.expand_dims/ExpandDims/dim", "op": "Const", "attr": {"dtype": {"type": "DT_INT64"}, "value": {"tensor": {"dtype": "DT_INT64", "tensorShape": {}}}}}, {"name": "StatefulPartitionedCall/model/tf.compat.v1.transpose/transpose/perm", "op": "Const", "attr": {"value": {"tensor": {"dtype": "DT_INT32", "tensorShape": {"dim": [{"size": "4"}]}}}, "dtype": {"type": "DT_INT32"}}}, {"name": "StatefulPartitionedCall/model/tf.image.resize/resize/size", "op": "Const", "attr": {"dtype": {"type": "DT_INT32"}, "value": {"tensor": {"dtype": "DT_INT32", "tensorShape": {"dim": [{"size": "2"}]}}}}}, {"name": "StatefulPartitionedCall/model/tf.compat.v1.gather_1/GatherV2/indices", "op": "Const", "attr": {"value": {"tensor": {"dtype": "DT_INT32", "tensorShape": {"dim": [{"size": "1"}]}}}, "dtype": {"type": "DT_INT32"}}}, {"name": "StatefulPartitionedCall/model/tf.compat.v1.gather_1/GatherV2/axis", "op": "Const", "attr": {"dtype": {"type": "DT_INT32"}, "value": {"tensor": {"dtype": "DT_INT32", "tensorShape": {}}}}}, {"name": "unknown_13", "op": "Const", "attr": {"value": {"tensor": {"dtype": "DT_INT32", "tensorShape": {}}}, "dtype": {"type": "DT_INT32"}}}, {"name": "StatefulPartitionedCall/model/tf.strided_slice_3/StridedSlice/begin", "op": "Const", "attr": {"dtype": {"type": "DT_INT64"}, "value": {"tensor": {"dtype": "DT_INT64", "tensorShape": {"dim": [{"size": "3"}]}}}}}, {"name": "StatefulPartitionedCall/model/tf.strided_slice_3/StridedSlice/end", "op": "Const", "attr": {"dtype": {"type": "DT_INT64"}, "value": {"tensor": {"dtype": "DT_INT64", "tensorShape": {"dim": [{"size": "3"}]}}}}}, {"name": "StatefulPartitionedCall/model/tf.strided_slice_3/StridedSlice/strides", "op": "Const", "attr": {"dtype": {"type": "DT_INT64"}, "value": {"tensor": {"dtype": "DT_INT64", "tensorShape": {"dim": [{"size": "3"}]}}}}}, {"name": "StatefulPartitionedCall/model/tf.math.add_27/Add/y", "op": "Const", "attr": {"dtype": {"type": "DT_FLOAT"}, "value": {"tensor": {"dtype": "DT_FLOAT", "tensorShape": {"dim": [{"size": "1"}]}}}}}, {"name": "StatefulPartitionedCall/model/tf.expand_dims_8/ExpandDims/dim", "op": "Const", "attr": {"value": {"tensor": {"dtype": "DT_INT64", "tensorShape": {}}}, "dtype": {"type": "DT_INT64"}}}, {"name": "unknown_18", "op": "Const", "attr": {"dtype": {"type": "DT_FLOAT"}, "value": {"tensor": {"dtype": "DT_FLOAT", "tensorShape": {"dim": [{"size": "1"}, {"size": "1"}, {"size": "1"}, {"size": "16"}]}}}}}, {"name": "StatefulPartitionedCall/model/tf.compat.v1.transpose_5/transpose/perm", "op": "Const", "attr": {"dtype": {"type": "DT_INT32"}, "value": {"tensor": {"dtype": "DT_INT32", "tensorShape": {"dim": [{"size": "4"}]}}}}}, {"name": "StatefulPartitionedCall/model/tf.strided_slice_5/StridedSlice/begin", "op": "Const", "attr": {"value": {"tensor": {"dtype": "DT_INT64", "tensorShape": {"dim": [{"size": "4"}]}}}, "dtype": {"type": "DT_INT64"}}}, {"name": "StatefulPartitionedCall/model/tf.strided_slice_5/StridedSlice/end", "op": "Const", "attr": {"dtype": {"type": "DT_INT64"}, "value": {"tensor": {"dtype": "DT_INT64", "tensorShape": {"dim": [{"size": "4"}]}}}}}, {"name": "StatefulPartitionedCall/model/tf.strided_slice_5/StridedSlice/strides", "op": "Const", "attr": {"value": {"tensor": {"dtype": "DT_INT64", "tensorShape": {"dim": [{"size": "4"}]}}}, "dtype": {"type": "DT_INT64"}}}, {"name": "StatefulPartitionedCall/model/tf.compat.v1.transpose_7/transpose/perm", "op": "Const", "attr": {"dtype": {"type": "DT_INT32"}, "value": {"tensor": {"dtype": "DT_INT32", "tensorShape": {"dim": [{"size": "4"}]}}}}}, {"name": "StatefulPartitionedCall/model/tf.expand_dims_10/ExpandDims/dim", "op": "Const", "attr": {"dtype": {"type": "DT_INT64"}, "value": {"tensor": {"dtype": "DT_INT64", "tensorShape": {}}}}}, {"name": "StatefulPartitionedCall/model/tf.concat_1/concat/axis", "op": "Const", "attr": {"value": {"tensor": {"dtype": "DT_INT32", "tensorShape": {}}}, "dtype": {"type": "DT_INT32"}}}, {"name": "StatefulPartitionedCall/model/tf.reshape_3/Reshape/shape", "op": "Const", "attr": {"value": {"tensor": {"dtype": "DT_INT32", "tensorShape": {"dim": [{"size": "4"}]}}}, "dtype": {"type": "DT_INT32"}}}, {"name": "StatefulPartitionedCall/model/tf.concat_2/concat/axis", "op": "Const", "attr": {"dtype": {"type": "DT_INT32"}, "value": {"tensor": {"dtype": "DT_INT32", "tensorShape": {}}}}}, {"name": "StatefulPartitionedCall/model/tf.compat.v1.transpose_8/transpose/perm", "op": "Const", "attr": {"dtype": {"type": "DT_INT32"}, "value": {"tensor": {"dtype": "DT_INT32", "tensorShape": {"dim": [{"size": "4"}]}}}}}, {"name": "StatefulPartitionedCall/model/tf.reshape_4/Reshape/shape", "op": "Const", "attr": {"value": {"tensor": {"dtype": "DT_INT32", "tensorShape": {"dim": [{"size": "3"}]}}}, "dtype": {"type": "DT_INT32"}}}, {"name": "StatefulPartitionedCall/model/tf.compat.v1.transpose_9/transpose/perm", "op": "Const", "attr": {"value": {"tensor": {"dtype": "DT_INT32", "tensorShape": {"dim": [{"size": "3"}]}}}, "dtype": {"type": "DT_INT32"}}}, {"name": "StatefulPartitionedCall/model/tf.linalg.matmul_1/MatMul/b", "op": "Const", "attr": {"dtype": {"type": "DT_FLOAT"}, "value": {"tensor": {"dtype": "DT_FLOAT", "tensorShape": {"dim": [{"size": "32"}, {"size": "32"}]}}}}}, {"name": "StatefulPartitionedCall/model/tf.math.add_30/Add/y", "op": "Const", "attr": {"value": {"tensor": {"dtype": "DT_FLOAT", "tensorShape": {"dim": [{"size": "32"}]}}}, "dtype": {"type": "DT_FLOAT"}}}, {"name": "StatefulPartitionedCall/model/tf.reshape_6/Reshape/shape", "op": "Const", "attr": {"value": {"tensor": {"dtype": "DT_INT32", "tensorShape": {"dim": [{"size": "3"}]}}}, "dtype": {"type": "DT_INT32"}}}, {"name": "StatefulPartitionedCall/model/tf.compat.v1.transpose_11/transpose/perm", "op": "Const", "attr": {"dtype": {"type": "DT_INT32"}, "value": {"tensor": {"dtype": "DT_INT32", "tensorShape": {"dim": [{"size": "3"}]}}}}}, {"name": "StatefulPartitionedCall/model/tf.reshape_7/Reshape/shape", "op": "Const", "attr": {"value": {"tensor": {"dtype": "DT_INT32", "tensorShape": {"dim": [{"size": "4"}]}}}, "dtype": {"type": "DT_INT32"}}}, {"name": "unknown_22", "op": "Const", "attr": {"dtype": {"type": "DT_INT64"}, "value": {"tensor": {"dtype": "DT_INT64", "tensorShape": {"dim": [{"size": "2"}]}}}}}, {"name": "unknown_23", "op": "Const", "attr": {"dtype": {"type": "DT_INT64"}, "value": {"tensor": {"dtype": "DT_INT64", "tensorShape": {"dim": [{"size": "3"}]}}}}}, {"name": "StatefulPartitionedCall/model/zero_padding2d_12/Pad/paddings", "op": "Const", "attr": {"dtype": {"type": "DT_INT32"}, "value": {"tensor": {"dtype": "DT_INT32", "tensorShape": {"dim": [{"size": "4"}, {"size": "2"}]}}}}}, {"name": "StatefulPartitionedCall/model/conv2d_13/Conv2D/ReadVariableOp", "op": "Const", "attr": {"value": {"tensor": {"dtype": "DT_FLOAT", "tensorShape": {"dim": [{"size": "3"}, {"size": "3"}, {"size": "64"}, {"size": "128"}]}}}, "dtype": {"type": "DT_FLOAT"}}}, {"name": "StatefulPartitionedCall/model/tf.math.add_18/Add/y", "op": "Const", "attr": {"dtype": {"type": "DT_FLOAT"}, "value": {"tensor": {"dtype": "DT_FLOAT", "tensorShape": {"dim": [{"size": "128"}]}}}}}, {"name": "StatefulPartitionedCall/model/zero_padding2d_13/Pad/paddings", "op": "Const", "attr": {"value": {"tensor": {"dtype": "DT_INT32", "tensorShape": {"dim": [{"size": "4"}, {"size": "2"}]}}}, "dtype": {"type": "DT_INT32"}}}, {"name": "StatefulPartitionedCall/model/conv2d_14/Conv2D/ReadVariableOp", "op": "Const", "attr": {"dtype": {"type": "DT_FLOAT"}, "value": {"tensor": {"dtype": "DT_FLOAT", "tensorShape": {"dim": [{"size": "3"}, {"size": "3"}, {"size": "128"}, {"size": "128"}]}}}}}, {"name": "StatefulPartitionedCall/model/tf.math.add_19/Add/y", "op": "Const", "attr": {"value": {"tensor": {"dtype": "DT_FLOAT", "tensorShape": {"dim": [{"size": "128"}]}}}, "dtype": {"type": "DT_FLOAT"}}}, {"name": "StatefulPartitionedCall/model/zero_padding2d_8/Pad/paddings", "op": "Const", "attr": {"dtype": {"type": "DT_INT32"}, "value": {"tensor": {"dtype": "DT_INT32", "tensorShape": {"dim": [{"size": "4"}, {"size": "2"}]}}}}}, {"name": "StatefulPartitionedCall/model/conv2d_8/Conv2D/ReadVariableOp", "op": "Const", "attr": {"dtype": {"type": "DT_FLOAT"}, "value": {"tensor": {"dtype": "DT_FLOAT", "tensorShape": {"dim": [{"size": "3"}, {"size": "3"}, {"size": "32"}, {"size": "64"}]}}}}}, {"name": "StatefulPartitionedCall/model/tf.math.add_11/Add/y", "op": "Const", "attr": {"value": {"tensor": {"dtype": "DT_FLOAT", "tensorShape": {"dim": [{"size": "64"}]}}}, "dtype": {"type": "DT_FLOAT"}}}, {"name": "StatefulPartitionedCall/model/zero_padding2d_9/Pad/paddings", "op": "Const", "attr": {"value": {"tensor": {"dtype": "DT_INT32", "tensorShape": {"dim": [{"size": "4"}, {"size": "2"}]}}}, "dtype": {"type": "DT_INT32"}}}, {"name": "StatefulPartitionedCall/model/conv2d_9/Conv2D/ReadVariableOp", "op": "Const", "attr": {"dtype": {"type": "DT_FLOAT"}, "value": {"tensor": {"dtype": "DT_FLOAT", "tensorShape": {"dim": [{"size": "3"}, {"size": "3"}, {"size": "64"}, {"size": "64"}]}}}}}, {"name": "StatefulPartitionedCall/model/tf.math.add_12/Add/y", "op": "Const", "attr": {"dtype": {"type": "DT_FLOAT"}, "value": {"tensor": {"dtype": "DT_FLOAT", "tensorShape": {"dim": [{"size": "64"}]}}}}}, {"name": "StatefulPartitionedCall/model/zero_padding2d_4/Pad/paddings", "op": "Const", "attr": {"dtype": {"type": "DT_INT32"}, "value": {"tensor": {"dtype": "DT_INT32", "tensorShape": {"dim": [{"size": "4"}, {"size": "2"}]}}}}}, {"name": "StatefulPartitionedCall/model/conv2d_3/Conv2D/ReadVariableOp", "op": "Const", "attr": {"dtype": {"type": "DT_FLOAT"}, "value": {"tensor": {"dtype": "DT_FLOAT", "tensorShape": {"dim": [{"size": "3"}, {"size": "3"}, {"size": "16"}, {"size": "32"}]}}}}}, {"name": "StatefulPartitionedCall/model/tf.math.add_4/Add/y", "op": "Const", "attr": {"dtype": {"type": "DT_FLOAT"}, "value": {"tensor": {"dtype": "DT_FLOAT", "tensorShape": {"dim": [{"size": "32"}]}}}}}, {"name": "StatefulPartitionedCall/model/zero_padding2d_5/Pad/paddings", "op": "Const", "attr": {"value": {"tensor": {"dtype": "DT_INT32", "tensorShape": {"dim": [{"size": "4"}, {"size": "2"}]}}}, "dtype": {"type": "DT_INT32"}}}, {"name": "StatefulPartitionedCall/model/conv2d_4/Conv2D/ReadVariableOp", "op": "Const", "attr": {"value": {"tensor": {"dtype": "DT_FLOAT", "tensorShape": {"dim": [{"size": "3"}, {"size": "3"}, {"size": "32"}, {"size": "32"}]}}}, "dtype": {"type": "DT_FLOAT"}}}, {"name": "StatefulPartitionedCall/model/tf.math.add_5/Add/y", "op": "Const", "attr": {"value": {"tensor": {"dtype": "DT_FLOAT", "tensorShape": {"dim": [{"size": "32"}]}}}, "dtype": {"type": "DT_FLOAT"}}}, {"name": "StatefulPartitionedCall/model/zero_padding2d/Pad/paddings", "op": "Const", "attr": {"dtype": {"type": "DT_INT32"}, "value": {"tensor": {"dtype": "DT_INT32", "tensorShape": {"dim": [{"size": "4"}, {"size": "2"}]}}}}}, {"name": "StatefulPartitionedCall/model/conv2d/Conv2D/ReadVariableOp", "op": "Const", "attr": {"value": {"tensor": {"dtype": "DT_FLOAT", "tensorShape": {"dim": [{"size": "7"}, {"size": "7"}, {"size": "3"}, {"size": "16"}]}}}, "dtype": {"type": "DT_FLOAT"}}}, {"name": "StatefulPartitionedCall/model/zero_padding2d_1/Pad/paddings", "op": "Const", "attr": {"value": {"tensor": {"dtype": "DT_INT32", "tensorShape": {"dim": [{"size": "4"}, {"size": "2"}]}}}, "dtype": {"type": "DT_INT32"}}}, {"name": "StatefulPartitionedCall/model/zero_padding2d_2/Pad/paddings", "op": "Const", "attr": {"value": {"tensor": {"dtype": "DT_INT32", "tensorShape": {"dim": [{"size": "4"}, {"size": "2"}]}}}, "dtype": {"type": "DT_INT32"}}}, {"name": "StatefulPartitionedCall/model/conv2d_1/Conv2D/ReadVariableOp", "op": "Const", "attr": {"value": {"tensor": {"dtype": "DT_FLOAT", "tensorShape": {"dim": [{"size": "3"}, {"size": "3"}, {"size": "16"}, {"size": "16"}]}}}, "dtype": {"type": "DT_FLOAT"}}}, {"name": "StatefulPartitionedCall/model/tf.math.add_1/Add/y", "op": "Const", "attr": {"value": {"tensor": {"dtype": "DT_FLOAT", "tensorShape": {"dim": [{"size": "16"}]}}}, "dtype": {"type": "DT_FLOAT"}}}, {"name": "StatefulPartitionedCall/model/zero_padding2d_3/Pad/paddings", "op": "Const", "attr": {"value": {"tensor": {"dtype": "DT_INT32", "tensorShape": {"dim": [{"size": "4"}, {"size": "2"}]}}}, "dtype": {"type": "DT_INT32"}}}, {"name": "StatefulPartitionedCall/model/conv2d_2/Conv2D/ReadVariableOp", "op": "Const", "attr": {"value": {"tensor": {"dtype": "DT_FLOAT", "tensorShape": {"dim": [{"size": "3"}, {"size": "3"}, {"size": "16"}, {"size": "16"}]}}}, "dtype": {"type": "DT_FLOAT"}}}, {"name": "StatefulPartitionedCall/model/tf.math.add_2/Add/y", "op": "Const", "attr": {"value": {"tensor": {"dtype": "DT_FLOAT", "tensorShape": {"dim": [{"size": "16"}]}}}, "dtype": {"type": "DT_FLOAT"}}}, {"name": "StatefulPartitionedCall/model/conv2d_5/Conv2D/ReadVariableOp", "op": "Const", "attr": {"dtype": {"type": "DT_FLOAT"}, "value": {"tensor": {"dtype": "DT_FLOAT", "tensorShape": {"dim": [{"size": "1"}, {"size": "1"}, {"size": "16"}, {"size": "32"}]}}}}}, {"name": "StatefulPartitionedCall/model/tf.math.add_6/Add/y", "op": "Const", "attr": {"dtype": {"type": "DT_FLOAT"}, "value": {"tensor": {"dtype": "DT_FLOAT", "tensorShape": {"dim": [{"size": "32"}]}}}}}, {"name": "StatefulPartitionedCall/model/zero_padding2d_6/Pad/paddings", "op": "Const", "attr": {"dtype": {"type": "DT_INT32"}, "value": {"tensor": {"dtype": "DT_INT32", "tensorShape": {"dim": [{"size": "4"}, {"size": "2"}]}}}}}, {"name": "StatefulPartitionedCall/model/conv2d_6/Conv2D/ReadVariableOp", "op": "Const", "attr": {"dtype": {"type": "DT_FLOAT"}, "value": {"tensor": {"dtype": "DT_FLOAT", "tensorShape": {"dim": [{"size": "3"}, {"size": "3"}, {"size": "32"}, {"size": "32"}]}}}}}, {"name": "StatefulPartitionedCall/model/tf.math.add_8/Add/y", "op": "Const", "attr": {"dtype": {"type": "DT_FLOAT"}, "value": {"tensor": {"dtype": "DT_FLOAT", "tensorShape": {"dim": [{"size": "32"}]}}}}}, {"name": "StatefulPartitionedCall/model/zero_padding2d_7/Pad/paddings", "op": "Const", "attr": {"dtype": {"type": "DT_INT32"}, "value": {"tensor": {"dtype": "DT_INT32", "tensorShape": {"dim": [{"size": "4"}, {"size": "2"}]}}}}}, {"name": "StatefulPartitionedCall/model/conv2d_7/Conv2D/ReadVariableOp", "op": "Const", "attr": {"value": {"tensor": {"dtype": "DT_FLOAT", "tensorShape": {"dim": [{"size": "3"}, {"size": "3"}, {"size": "32"}, {"size": "32"}]}}}, "dtype": {"type": "DT_FLOAT"}}}, {"name": "StatefulPartitionedCall/model/tf.math.add_9/Add/y", "op": "Const", "attr": {"value": {"tensor": {"dtype": "DT_FLOAT", "tensorShape": {"dim": [{"size": "32"}]}}}, "dtype": {"type": "DT_FLOAT"}}}, {"name": "StatefulPartitionedCall/model/conv2d_10/Conv2D/ReadVariableOp", "op": "Const", "attr": {"dtype": {"type": "DT_FLOAT"}, "value": {"tensor": {"dtype": "DT_FLOAT", "tensorShape": {"dim": [{"size": "1"}, {"size": "1"}, {"size": "32"}, {"size": "64"}]}}}}}, {"name": "StatefulPartitionedCall/model/tf.math.add_13/Add/y", "op": "Const", "attr": {"value": {"tensor": {"dtype": "DT_FLOAT", "tensorShape": {"dim": [{"size": "64"}]}}}, "dtype": {"type": "DT_FLOAT"}}}, {"name": "StatefulPartitionedCall/model/zero_padding2d_10/Pad/paddings", "op": "Const", "attr": {"dtype": {"type": "DT_INT32"}, "value": {"tensor": {"dtype": "DT_INT32", "tensorShape": {"dim": [{"size": "4"}, {"size": "2"}]}}}}}, {"name": "StatefulPartitionedCall/model/conv2d_11/Conv2D/ReadVariableOp", "op": "Const", "attr": {"dtype": {"type": "DT_FLOAT"}, "value": {"tensor": {"dtype": "DT_FLOAT", "tensorShape": {"dim": [{"size": "3"}, {"size": "3"}, {"size": "64"}, {"size": "64"}]}}}}}, {"name": "StatefulPartitionedCall/model/tf.math.add_15/Add/y", "op": "Const", "attr": {"dtype": {"type": "DT_FLOAT"}, "value": {"tensor": {"dtype": "DT_FLOAT", "tensorShape": {"dim": [{"size": "64"}]}}}}}, {"name": "StatefulPartitionedCall/model/zero_padding2d_11/Pad/paddings", "op": "Const", "attr": {"value": {"tensor": {"dtype": "DT_INT32", "tensorShape": {"dim": [{"size": "4"}, {"size": "2"}]}}}, "dtype": {"type": "DT_INT32"}}}, {"name": "StatefulPartitionedCall/model/conv2d_12/Conv2D/ReadVariableOp", "op": "Const", "attr": {"dtype": {"type": "DT_FLOAT"}, "value": {"tensor": {"dtype": "DT_FLOAT", "tensorShape": {"dim": [{"size": "3"}, {"size": "3"}, {"size": "64"}, {"size": "64"}]}}}}}, {"name": "StatefulPartitionedCall/model/tf.math.add_16/Add/y", "op": "Const", "attr": {"dtype": {"type": "DT_FLOAT"}, "value": {"tensor": {"dtype": "DT_FLOAT", "tensorShape": {"dim": [{"size": "64"}]}}}}}, {"name": "StatefulPartitionedCall/model/conv2d_15/Conv2D/ReadVariableOp", "op": "Const", "attr": {"value": {"tensor": {"dtype": "DT_FLOAT", "tensorShape": {"dim": [{"size": "1"}, {"size": "1"}, {"size": "64"}, {"size": "128"}]}}}, "dtype": {"type": "DT_FLOAT"}}}, {"name": "StatefulPartitionedCall/model/tf.math.add_20/Add/y", "op": "Const", "attr": {"dtype": {"type": "DT_FLOAT"}, "value": {"tensor": {"dtype": "DT_FLOAT", "tensorShape": {"dim": [{"size": "128"}]}}}}}, {"name": "StatefulPartitionedCall/model/zero_padding2d_14/Pad/paddings", "op": "Const", "attr": {"dtype": {"type": "DT_INT32"}, "value": {"tensor": {"dtype": "DT_INT32", "tensorShape": {"dim": [{"size": "4"}, {"size": "2"}]}}}}}, {"name": "StatefulPartitionedCall/model/conv2d_16/Conv2D/ReadVariableOp", "op": "Const", "attr": {"dtype": {"type": "DT_FLOAT"}, "value": {"tensor": {"dtype": "DT_FLOAT", "tensorShape": {"dim": [{"size": "3"}, {"size": "3"}, {"size": "128"}, {"size": "128"}]}}}}}, {"name": "StatefulPartitionedCall/model/tf.math.add_22/Add/y", "op": "Const", "attr": {"value": {"tensor": {"dtype": "DT_FLOAT", "tensorShape": {"dim": [{"size": "128"}]}}}, "dtype": {"type": "DT_FLOAT"}}}, {"name": "StatefulPartitionedCall/model/zero_padding2d_15/Pad/paddings", "op": "Const", "attr": {"dtype": {"type": "DT_INT32"}, "value": {"tensor": {"dtype": "DT_INT32", "tensorShape": {"dim": [{"size": "4"}, {"size": "2"}]}}}}}, {"name": "StatefulPartitionedCall/model/conv2d_17/Conv2D/ReadVariableOp", "op": "Const", "attr": {"dtype": {"type": "DT_FLOAT"}, "value": {"tensor": {"dtype": "DT_FLOAT", "tensorShape": {"dim": [{"size": "3"}, {"size": "3"}, {"size": "128"}, {"size": "128"}]}}}}}, {"name": "StatefulPartitionedCall/model/tf.math.add_23/Add/y", "op": "Const", "attr": {"dtype": {"type": "DT_FLOAT"}, "value": {"tensor": {"dtype": "DT_FLOAT", "tensorShape": {"dim": [{"size": "128"}]}}}}}, {"name": "StatefulPartitionedCall/model/conv2d_18/Conv2D/ReadVariableOp", "op": "Const", "attr": {"value": {"tensor": {"dtype": "DT_FLOAT", "tensorShape": {"dim": [{"size": "1"}, {"size": "1"}, {"size": "128"}, {"size": "32"}]}}}, "dtype": {"type": "DT_FLOAT"}}}, {"name": "StatefulPartitionedCall/model/tf.math.add_25/Add/y", "op": "Const", "attr": {"value": {"tensor": {"dtype": "DT_FLOAT", "tensorShape": {"dim": [{"size": "32"}]}}}, "dtype": {"type": "DT_FLOAT"}}}, {"name": "StatefulPartitionedCall/model/tf.reshape_1/Reshape/shape", "op": "Const", "attr": {"value": {"tensor": {"dtype": "DT_INT32", "tensorShape": {"dim": [{"size": "3"}]}}}, "dtype": {"type": "DT_INT32"}}}, {"name": "StatefulPartitionedCall/model/tf.compat.v1.transpose_1/transpose/perm", "op": "Const", "attr": {"value": {"tensor": {"dtype": "DT_INT32", "tensorShape": {"dim": [{"size": "3"}]}}}, "dtype": {"type": "DT_INT32"}}}, {"name": "StatefulPartitionedCall/model/tf.linalg.matmul_3/MatMul/b", "op": "Const", "attr": {"value": {"tensor": {"dtype": "DT_FLOAT", "tensorShape": {"dim": [{"size": "32"}, {"size": "32"}]}}}, "dtype": {"type": "DT_FLOAT"}}}, {"name": "StatefulPartitionedCall/model/tf.math.add_31/Add/y", "op": "Const", "attr": {"value": {"tensor": {"dtype": "DT_FLOAT", "tensorShape": {"dim": [{"size": "32"}]}}}, "dtype": {"type": "DT_FLOAT"}}}, {"name": "StatefulPartitionedCall/model/tf.reshape_11/Reshape/shape", "op": "Const", "attr": {"dtype": {"type": "DT_INT32"}, "value": {"tensor": {"dtype": "DT_INT32", "tensorShape": {"dim": [{"size": "3"}]}}}}}, {"name": "StatefulPartitionedCall/model/tf.compat.v1.transpose_12/transpose/perm", "op": "Const", "attr": {"value": {"tensor": {"dtype": "DT_INT32", "tensorShape": {"dim": [{"size": "3"}]}}}, "dtype": {"type": "DT_INT32"}}}, {"name": "StatefulPartitionedCall/model/tf.compat.v1.transpose_13/transpose/perm", "op": "Const", "attr": {"dtype": {"type": "DT_INT32"}, "value": {"tensor": {"dtype": "DT_INT32", "tensorShape": {"dim": [{"size": "3"}]}}}}}, {"name": "StatefulPartitionedCall/model/tf.reshape_12/Reshape/shape", "op": "Const", "attr": {"value": {"tensor": {"dtype": "DT_INT32", "tensorShape": {"dim": [{"size": "3"}]}}}, "dtype": {"type": "DT_INT32"}}}, {"name": "StatefulPartitionedCall/model/tf.linalg.matmul_5/MatMul/b", "op": "Const", "attr": {"dtype": {"type": "DT_FLOAT"}, "value": {"tensor": {"dtype": "DT_FLOAT", "tensorShape": {"dim": [{"size": "32"}, {"size": "32"}]}}}}}, {"name": "unknown_25", "op": "Const", "attr": {"value": {"tensor": {"dtype": "DT_INT32", "tensorShape": {"dim": [{"size": "1"}]}}}, "dtype": {"type": "DT_INT32"}}}, {"name": "StatefulPartitionedCall/model/tf.math.add_34/Add/y", "op": "Const", "attr": {"value": {"tensor": {"dtype": "DT_FLOAT", "tensorShape": {"dim": [{"size": "32"}]}}}, "dtype": {"type": "DT_FLOAT"}}}, {"name": "StatefulPartitionedCall/model/tf.linalg.matmul_6/MatMul/b", "op": "Const", "attr": {"dtype": {"type": "DT_FLOAT"}, "value": {"tensor": {"dtype": "DT_FLOAT", "tensorShape": {"dim": [{"size": "128"}, {"size": "32"}]}}}}}, {"name": "StatefulPartitionedCall/model/tf.math.add_35/Add/y", "op": "Const", "attr": {"value": {"tensor": {"dtype": "DT_FLOAT", "tensorShape": {"dim": [{"size": "128"}]}}}, "dtype": {"type": "DT_FLOAT"}}}, {"name": "StatefulPartitionedCall/model/tf.linalg.matmul_7/MatMul/b", "op": "Const", "attr": {"value": {"tensor": {"dtype": "DT_FLOAT", "tensorShape": {"dim": [{"size": "32"}, {"size": "128"}]}}}, "dtype": {"type": "DT_FLOAT"}}}, {"name": "unknown_28", "op": "Const", "attr": {"value": {"tensor": {"dtype": "DT_INT32", "tensorShape": {"dim": [{"size": "1"}]}}}, "dtype": {"type": "DT_INT32"}}}, {"name": "StatefulPartitionedCall/model/tf.math.add_38/Add/y", "op": "Const", "attr": {"dtype": {"type": "DT_FLOAT"}, "value": {"tensor": {"dtype": "DT_FLOAT", "tensorShape": {"dim": [{"size": "32"}]}}}}}, {"name": "StatefulPartitionedCall/model/tf.linalg.matmul_9/MatMul/b", "op": "Const", "attr": {"dtype": {"type": "DT_FLOAT"}, "value": {"tensor": {"dtype": "DT_FLOAT", "tensorShape": {"dim": [{"size": "32"}, {"size": "32"}]}}}}}, {"name": "StatefulPartitionedCall/model/tf.math.add_41/Add/y", "op": "Const", "attr": {"dtype": {"type": "DT_FLOAT"}, "value": {"tensor": {"dtype": "DT_FLOAT", "tensorShape": {"dim": [{"size": "32"}]}}}}}, {"name": "StatefulPartitionedCall/model/tf.reshape_14/Reshape/shape", "op": "Const", "attr": {"value": {"tensor": {"dtype": "DT_INT32", "tensorShape": {"dim": [{"size": "3"}]}}}, "dtype": {"type": "DT_INT32"}}}, {"name": "StatefulPartitionedCall/model/tf.compat.v1.transpose_15/transpose/perm", "op": "Const", "attr": {"value": {"tensor": {"dtype": "DT_INT32", "tensorShape": {"dim": [{"size": "3"}]}}}, "dtype": {"type": "DT_INT32"}}}, {"name": "StatefulPartitionedCall/model/tf.reshape_15/Reshape/shape", "op": "Const", "attr": {"value": {"tensor": {"dtype": "DT_INT32", "tensorShape": {"dim": [{"size": "4"}]}}}, "dtype": {"type": "DT_INT32"}}}, {"name": "unknown_30", "op": "Const", "attr": {"value": {"tensor": {"dtype": "DT_INT64", "tensorShape": {"dim": [{"size": "2"}]}}}, "dtype": {"type": "DT_INT64"}}}, {"name": "unknown_31", "op": "Const", "attr": {"dtype": {"type": "DT_INT64"}, "value": {"tensor": {"dtype": "DT_INT64", "tensorShape": {"dim": [{"size": "3"}]}}}}}, {"name": "StatefulPartitionedCall/model/tf.reshape_42/Reshape/shape", "op": "Const", "attr": {"dtype": {"type": "DT_INT32"}, "value": {"tensor": {"dtype": "DT_INT32", "tensorShape": {"dim": [{"size": "4"}]}}}}}, {"name": "StatefulPartitionedCall/model/tf.math.reduce_sum/Sum/reduction_indices", "op": "Const", "attr": {"value": {"tensor": {"dtype": "DT_INT32", "tensorShape": {}}}, "dtype": {"type": "DT_INT32"}}}, {"name": "StatefulPartitionedCall/model/tf.math.multiply_22/Mul/y", "op": "Const", "attr": {"value": {"tensor": {"dtype": "DT_FLOAT", "tensorShape": {"dim": [{"size": "1"}, {"size": "1"}, {"size": "1"}]}}}, "dtype": {"type": "DT_FLOAT"}}}, {"name": "input_mask", "op": "Placeholder", "attr": {"dtype": {"type": "DT_FLOAT"}, "shape": {"shape": {"dim": [{"size": "1"}, {"size": "480"}, {"size": "640"}, {"size": "1"}]}}}}, {"name": "input_rgb", "op": "Placeholder", "attr": {"dtype": {"type": "DT_FLOAT"}, "shape": {"shape": {"dim": [{"size": "1"}, {"size": "480"}, {"size": "640"}, {"size": "3"}]}}}}, {"name": "StatefulPartitionedCall/model/tf.compat.v1.gather/GatherV2", "op": "GatherV2", "input": ["input_mask", "StatefulPartitionedCall/model/tf.compat.v1.gather/GatherV2/indices", "StatefulPartitionedCall/model/tf.compat.v1.gather/GatherV2/axis"], "attr": {"Taxis": {"type": "DT_INT32"}, "batch_dims": {"i": "0"}, "Tparams": {"type": "DT_FLOAT"}, "Tindices": {"type": "DT_INT32"}}}, {"name": "StatefulPartitionedCall/model/zero_padding2d/Pad", "op": "Pad", "input": ["input_rgb", "StatefulPartitionedCall/model/zero_padding2d/Pad/paddings"], "attr": {"T": {"type": "DT_FLOAT"}, "Tpaddings": {"type": "DT_INT32"}}}, {"name": "StatefulPartitionedCall/model/tf.compat.v1.squeeze/Squeeze", "op": "Squeeze", "input": ["StatefulPartitionedCall/model/tf.compat.v1.gather/GatherV2"], "attr": {"T": {"type": "DT_FLOAT"}, "squeeze_dims": {"list": {"i": ["3"]}}}}, {"name": "StatefulPartitionedCall/model/conv2d/Conv2D", "op": "Conv2D", "input": ["StatefulPartitionedCall/model/zero_padding2d/Pad", "StatefulPartitionedCall/model/conv2d/Conv2D/ReadVariableOp"], "device": "/device:CPU:0", "attr": {"strides": {"list": {"i": ["1", "2", "2", "1"]}}, "padding": {"s": "VkFMSUQ="}, "dilations": {"list": {"i": ["1", "1", "1", "1"]}}, "T": {"type": "DT_FLOAT"}, "use_cudnn_on_gpu": {"b": true}, "explicit_paddings": {"list": {}}, "data_format": {"s": "TkhXQw=="}}}, {"name": "StatefulPartitionedCall/model/tf.expand_dims/ExpandDims", "op": "ExpandDims", "input": ["StatefulPartitionedCall/model/tf.compat.v1.squeeze/Squeeze", "StatefulPartitionedCall/model/tf.expand_dims/ExpandDims/dim"], "attr": {"Tdim": {"type": "DT_INT64"}, "T": {"type": "DT_FLOAT"}}}, {"name": "StatefulPartitionedCall/model/tf.nn.relu/Relu", "op": "Relu", "input": ["StatefulPartitionedCall/model/conv2d/Conv2D"], "attr": {"T": {"type": "DT_FLOAT"}}}, {"name": "StatefulPartitionedCall/model/tf.compat.v1.transpose/transpose", "op": "Transpose", "input": ["StatefulPartitionedCall/model/tf.expand_dims/ExpandDims", "StatefulPartitionedCall/model/tf.compat.v1.transpose/transpose/perm"], "attr": {"Tperm": {"type": "DT_INT32"}, "T": {"type": "DT_FLOAT"}}}, {"name": "StatefulPartitionedCall/model/zero_padding2d_1/Pad", "op": "Pad", "input": ["StatefulPartitionedCall/model/tf.nn.relu/Relu", "StatefulPartitionedCall/model/zero_padding2d_1/Pad/paddings"], "attr": {"Tpaddings": {"type": "DT_INT32"}, "T": {"type": "DT_FLOAT"}}}, {"name": "StatefulPartitionedCall/model/tf.image.resize/resize/ResizeNearestNeighbor", "op": "ResizeNearestNeighbor", "input": ["StatefulPartitionedCall/model/tf.compat.v1.transpose/transpose", "StatefulPartitionedCall/model/tf.image.resize/resize/size"], "attr": {"half_pixel_centers": {"b": true}, "T": {"type": "DT_FLOAT"}, "align_corners": {"b": false}}}, {"name": "StatefulPartitionedCall/model/tf.nn.max_pool2d/MaxPool2d", "op": "MaxPool", "input": ["StatefulPartitionedCall/model/zero_padding2d_1/Pad"], "attr": {"strides": {"list": {"i": ["1", "2", "2", "1"]}}, "padding": {"s": "VkFMSUQ="}, "T": {"type": "DT_FLOAT"}, "explicit_paddings": {"list": {}}, "ksize": {"list": {"i": ["1", "3", "3", "1"]}}, "data_format": {"s": "TkhXQw=="}}}, {"name": "StatefulPartitionedCall/model/tf.cast/Cast", "op": "Cast", "input": ["StatefulPartitionedCall/model/tf.image.resize/resize/ResizeNearestNeighbor"], "attr": {"SrcT": {"type": "DT_FLOAT"}, "Truncate": {"b": false}, "DstT": {"type": "DT_BOOL"}}}, {"name": "StatefulPartitionedCall/model/zero_padding2d_2/Pad", "op": "Pad", "input": ["StatefulPartitionedCall/model/tf.nn.max_pool2d/MaxPool2d", "StatefulPartitionedCall/model/zero_padding2d_2/Pad/paddings"], "attr": {"T": {"type": "DT_FLOAT"}, "Tpaddings": {"type": "DT_INT32"}}}, {"name": "StatefulPartitionedCall/model/tf.compat.v1.gather_1/GatherV2", "op": "GatherV2", "input": ["StatefulPartitionedCall/model/tf.cast/Cast", "StatefulPartitionedCall/model/tf.compat.v1.gather_1/GatherV2/indices", "StatefulPartitionedCall/model/tf.compat.v1.gather_1/GatherV2/axis"], "attr": {"Tparams": {"type": "DT_BOOL"}, "Tindices": {"type": "DT_INT32"}, "Taxis": {"type": "DT_INT32"}, "batch_dims": {"i": "0"}}}, {"name": "StatefulPartitionedCall/model/conv2d_1/Conv2D", "op": "Conv2D", "input": ["StatefulPartitionedCall/model/zero_padding2d_2/Pad", "StatefulPartitionedCall/model/conv2d_1/Conv2D/ReadVariableOp"], "device": "/device:CPU:0", "attr": {"data_format": {"s": "TkhXQw=="}, "strides": {"list": {"i": ["1", "1", "1", "1"]}}, "dilations": {"list": {"i": ["1", "1", "1", "1"]}}, "use_cudnn_on_gpu": {"b": true}, "T": {"type": "DT_FLOAT"}, "explicit_paddings": {"list": {}}, "padding": {"s": "VkFMSUQ="}}}, {"name": "StatefulPartitionedCall/model/tf.compat.v1.squeeze_1/Squeeze", "op": "Squeeze", "input": ["StatefulPartitionedCall/model/tf.compat.v1.gather_1/GatherV2"], "attr": {"squeeze_dims": {"list": {"i": ["3"]}}, "T": {"type": "DT_BOOL"}}}, {"name": "StatefulPartitionedCall/model/tf.math.add_1/Add", "op": "AddV2", "input": ["StatefulPartitionedCall/model/conv2d_1/Conv2D", "StatefulPartitionedCall/model/tf.math.add_1/Add/y"], "attr": {"T": {"type": "DT_FLOAT"}}}, {"name": "StatefulPartitionedCall/model/tf.reshape/Reshape", "op": "Reshape", "input": ["StatefulPartitionedCall/model/tf.compat.v1.squeeze_1/Squeeze", "StatefulPartitionedCall/model/tf.reshape/Reshape/shape"], "attr": {"Tshape": {"type": "DT_INT32"}, "T": {"type": "DT_BOOL"}}}, {"name": "StatefulPartitionedCall/model/tf.math.logical_not/LogicalNot", "op": "LogicalNot", "input": ["StatefulPartitionedCall/model/tf.compat.v1.squeeze_1/Squeeze"]}, {"name": "StatefulPartitionedCall/model/tf.nn.relu_1/Relu", "op": "Relu", "input": ["StatefulPartitionedCall/model/tf.math.add_1/Add"], "attr": {"T": {"type": "DT_FLOAT"}}}, {"name": "StatefulPartitionedCall/model/tf.expand_dims_14/ExpandDims", "op": "ExpandDims", "input": ["StatefulPartitionedCall/model/tf.reshape/Reshape", "StatefulPartitionedCall/model/tf.expand_dims_14/ExpandDims/dim"], "attr": {"T": {"type": "DT_BOOL"}, "Tdim": {"type": "DT_INT64"}}}, {"name": "StatefulPartitionedCall/model/tf.expand_dims_1/ExpandDims", "op": "ExpandDims", "input": ["StatefulPartitionedCall/model/tf.reshape/Reshape", "StatefulPartitionedCall/model/tf.expand_dims_1/ExpandDims/dim"], "attr": {"Tdim": {"type": "DT_INT64"}, "T": {"type": "DT_BOOL"}}}, {"name": "StatefulPartitionedCall/model/tf.expand_dims_11/ExpandDims", "op": "ExpandDims", "input": ["StatefulPartitionedCall/model/tf.reshape/Reshape", "StatefulPartitionedCall/model/tf.expand_dims_11/ExpandDims/dim"], "attr": {"T": {"type": "DT_BOOL"}, "Tdim": {"type": "DT_INT64"}}}, {"name": "StatefulPartitionedCall/model/tf.expand_dims_3/ExpandDims", "op": "ExpandDims", "input": ["StatefulPartitionedCall/model/tf.reshape/Reshape", "StatefulPartitionedCall/model/tf.expand_dims_3/ExpandDims/dim"], "attr": {"T": {"type": "DT_BOOL"}, "Tdim": {"type": "DT_INT64"}}}, {"name": "StatefulPartitionedCall/model/tf.cast_1/Cast", "op": "Cast", "input": ["StatefulPartitionedCall/model/tf.math.logical_not/LogicalNot"], "attr": {"Truncate": {"b": false}, "SrcT": {"type": "DT_BOOL"}, "DstT": {"type": "DT_FLOAT"}}}, {"name": "StatefulPartitionedCall/model/tf.cast_2/Cast", "op": "Cast", "input": ["StatefulPartitionedCall/model/tf.math.logical_not/LogicalNot"], "attr": {"Truncate": {"b": false}, "SrcT": {"type": "DT_BOOL"}, "DstT": {"type": "DT_FLOAT"}}}, {"name": "StatefulPartitionedCall/model/zero_padding2d_3/Pad", "op": "Pad", "input": ["StatefulPartitionedCall/model/tf.nn.relu_1/Relu", "StatefulPartitionedCall/model/zero_padding2d_3/Pad/paddings"], "attr": {"Tpaddings": {"type": "DT_INT32"}, "T": {"type": "DT_FLOAT"}}}, {"name": "StatefulPartitionedCall/model/tf.expand_dims_15/ExpandDims", "op": "ExpandDims", "input": ["StatefulPartitionedCall/model/tf.expand_dims_14/ExpandDims", "StatefulPartitionedCall/model/tf.expand_dims_15/ExpandDims/dim"], "attr": {"T": {"type": "DT_BOOL"}, "Tdim": {"type": "DT_INT64"}}}, {"name": "StatefulPartitionedCall/model/tf.expand_dims_2/ExpandDims", "op": "ExpandDims", "input": ["StatefulPartitionedCall/model/tf.expand_dims_1/ExpandDims", "StatefulPartitionedCall/model/tf.expand_dims_2/ExpandDims/dim"], "attr": {"T": {"type": "DT_BOOL"}, "Tdim": {"type": "DT_INT64"}}}, {"name": "StatefulPartitionedCall/model/tf.expand_dims_12/ExpandDims", "op": "ExpandDims", "input": ["StatefulPartitionedCall/model/tf.expand_dims_11/ExpandDims", "StatefulPartitionedCall/model/tf.expand_dims_12/ExpandDims/dim"], "attr": {"T": {"type": "DT_BOOL"}, "Tdim": {"type": "DT_INT64"}}}, {"name": "StatefulPartitionedCall/model/tf.expand_dims_4/ExpandDims", "op": "ExpandDims", "input": ["StatefulPartitionedCall/model/tf.expand_dims_3/ExpandDims", "StatefulPartitionedCall/model/tf.expand_dims_4/ExpandDims/dim"], "attr": {"Tdim": {"type": "DT_INT64"}, "T": {"type": "DT_BOOL"}}}, {"name": "StatefulPartitionedCall/model/tf.math.cumsum/Cumsum", "op": "Cumsum", "input": ["StatefulPartitionedCall/model/tf.cast_1/Cast", "unknown_14"], "attr": {"T": {"type": "DT_FLOAT"}, "reverse": {"b": false}, "Tidx": {"type": "DT_INT32"}, "exclusive": {"b": false}}}, {"name": "StatefulPartitionedCall/model/tf.math.cumsum_1/Cumsum", "op": "Cumsum", "input": ["StatefulPartitionedCall/model/tf.cast_2/Cast", "unknown_13"], "attr": {"reverse": {"b": false}, "exclusive": {"b": false}, "T": {"type": "DT_FLOAT"}, "Tidx": {"type": "DT_INT32"}}}, {"name": "StatefulPartitionedCall/model/conv2d_2/Conv2D", "op": "Conv2D", "input": ["StatefulPartitionedCall/model/zero_padding2d_3/Pad", "StatefulPartitionedCall/model/conv2d_2/Conv2D/ReadVariableOp"], "device": "/device:CPU:0", "attr": {"explicit_paddings": {"list": {}}, "T": {"type": "DT_FLOAT"}, "strides": {"list": {"i": ["1", "1", "1", "1"]}}, "use_cudnn_on_gpu": {"b": true}, "dilations": {"list": {"i": ["1", "1", "1", "1"]}}, "data_format": {"s": "TkhXQw=="}, "padding": {"s": "VkFMSUQ="}}}, {"name": "StatefulPartitionedCall/model/tf.strided_slice/StridedSlice", "op": "StridedSlice", "input": ["StatefulPartitionedCall/model/tf.math.cumsum/Cumsum", "StatefulPartitionedCall/model/tf.strided_slice/StridedSlice/begin", "StatefulPartitionedCall/model/tf.strided_slice/StridedSlice/end", "StatefulPartitionedCall/model/tf.strided_slice/StridedSlice/strides"], "attr": {"end_mask": {"i": "1"}, "shrink_axis_mask": {"i": "0"}, "Index": {"type": "DT_INT64"}, "ellipsis_mask": {"i": "0"}, "new_axis_mask": {"i": "0"}, "T": {"type": "DT_FLOAT"}, "begin_mask": {"i": "1"}}}, {"name": "StatefulPartitionedCall/model/tf.strided_slice_3/StridedSlice", "op": "StridedSlice", "input": ["StatefulPartitionedCall/model/tf.math.cumsum_1/Cumsum", "StatefulPartitionedCall/model/tf.strided_slice_3/StridedSlice/begin", "StatefulPartitionedCall/model/tf.strided_slice_3/StridedSlice/end", "StatefulPartitionedCall/model/tf.strided_slice_3/StridedSlice/strides"], "attr": {"Index": {"type": "DT_INT64"}, "begin_mask": {"i": "2"}, "end_mask": {"i": "2"}, "shrink_axis_mask": {"i": "0"}, "new_axis_mask": {"i": "0"}, "T": {"type": "DT_FLOAT"}, "ellipsis_mask": {"i": "0"}}}, {"name": "StatefulPartitionedCall/model/tf.math.add_2/Add", "op": "AddV2", "input": ["StatefulPartitionedCall/model/conv2d_2/Conv2D", "StatefulPartitionedCall/model/tf.math.add_2/Add/y"], "attr": {"T": {"type": "DT_FLOAT"}}}, {"name": "StatefulPartitionedCall/model/tf.math.add_26/Add", "op": "AddV2", "input": ["StatefulPartitionedCall/model/tf.strided_slice/StridedSlice", "StatefulPartitionedCall/model/tf.math.add_26/Add/y"], "attr": {"T": {"type": "DT_FLOAT"}}}, {"name": "StatefulPartitionedCall/model/tf.math.add_27/Add", "op": "AddV2", "input": ["StatefulPartitionedCall/model/tf.strided_slice_3/StridedSlice", "StatefulPartitionedCall/model/tf.math.add_27/Add/y"], "attr": {"T": {"type": "DT_FLOAT"}}}, {"name": "StatefulPartitionedCall/model/tf.math.add_3/Add", "op": "AddV2", "input": ["StatefulPartitionedCall/model/tf.nn.max_pool2d/MaxPool2d", "StatefulPartitionedCall/model/tf.math.add_2/Add"], "attr": {"T": {"type": "DT_FLOAT"}}}, {"name": "StatefulPartitionedCall/model/tf.math.pow/Pow", "op": "Reciprocal", "input": ["StatefulPartitionedCall/model/tf.math.add_26/Add"], "attr": {"T": {"type": "DT_FLOAT"}}}, {"name": "StatefulPartitionedCall/model/tf.math.pow_1/Pow", "op": "Reciprocal", "input": ["StatefulPartitionedCall/model/tf.math.add_27/Add"], "attr": {"T": {"type": "DT_FLOAT"}}}, {"name": "StatefulPartitionedCall/model/tf.nn.relu_2/Relu", "op": "Relu", "input": ["StatefulPartitionedCall/model/tf.math.add_3/Add"], "attr": {"T": {"type": "DT_FLOAT"}}}, {"name": "StatefulPartitionedCall/model/tf.math.multiply/Mul", "op": "Mul", "input": ["StatefulPartitionedCall/model/tf.math.multiply_1/Mul/y", "StatefulPartitionedCall/model/tf.math.pow/Pow"], "attr": {"T": {"type": "DT_FLOAT"}}}, {"name": "StatefulPartitionedCall/model/tf.math.multiply_3/Mul", "op": "Mul", "input": ["StatefulPartitionedCall/model/tf.math.multiply_4/Mul/y", "StatefulPartitionedCall/model/tf.math.pow_1/Pow"], "attr": {"T": {"type": "DT_FLOAT"}}}, {"name": "StatefulPartitionedCall/model/zero_padding2d_4/Pad", "op": "Pad", "input": ["StatefulPartitionedCall/model/tf.nn.relu_2/Relu", "StatefulPartitionedCall/model/zero_padding2d_4/Pad/paddings"], "attr": {"T": {"type": "DT_FLOAT"}, "Tpaddings": {"type": "DT_INT32"}}}, {"name": "StatefulPartitionedCall/model/conv2d_5/Conv2D", "op": "Conv2D", "input": ["StatefulPartitionedCall/model/tf.nn.relu_2/Relu", "StatefulPartitionedCall/model/conv2d_5/Conv2D/ReadVariableOp"], "device": "/device:CPU:0", "attr": {"padding": {"s": "VkFMSUQ="}, "explicit_paddings": {"list": {}}, "strides": {"list": {"i": ["1", "2", "2", "1"]}}, "T": {"type": "DT_FLOAT"}, "use_cudnn_on_gpu": {"b": true}, "data_format": {"s": "TkhXQw=="}, "dilations": {"list": {"i": ["1", "1", "1", "1"]}}}}, {"name": "StatefulPartitionedCall/model/tf.math.multiply_1/Mul", "op": "Mul", "input": ["StatefulPartitionedCall/model/tf.math.cumsum/Cumsum", "StatefulPartitionedCall/model/tf.math.multiply/Mul"], "attr": {"T": {"type": "DT_FLOAT"}}}, {"name": "StatefulPartitionedCall/model/tf.math.multiply_4/Mul", "op": "Mul", "input": ["StatefulPartitionedCall/model/tf.math.cumsum_1/Cumsum", "StatefulPartitionedCall/model/tf.math.multiply_3/Mul"], "attr": {"T": {"type": "DT_FLOAT"}}}, {"name": "StatefulPartitionedCall/model/conv2d_3/Conv2D", "op": "Conv2D", "input": ["StatefulPartitionedCall/model/zero_padding2d_4/Pad", "StatefulPartitionedCall/model/conv2d_3/Conv2D/ReadVariableOp"], "device": "/device:CPU:0", "attr": {"explicit_paddings": {"list": {}}, "data_format": {"s": "TkhXQw=="}, "strides": {"list": {"i": ["1", "2", "2", "1"]}}, "padding": {"s": "VkFMSUQ="}, "use_cudnn_on_gpu": {"b": true}, "dilations": {"list": {"i": ["1", "1", "1", "1"]}}, "T": {"type": "DT_FLOAT"}}}, {"name": "StatefulPartitionedCall/model/tf.math.add_6/Add", "op": "AddV2", "input": ["StatefulPartitionedCall/model/conv2d_5/Conv2D", "StatefulPartitionedCall/model/tf.math.add_6/Add/y"], "attr": {"T": {"type": "DT_FLOAT"}}}, {"name": "StatefulPartitionedCall/model/tf.expand_dims_5/ExpandDims", "op": "ExpandDims", "input": ["StatefulPartitionedCall/model/tf.math.multiply_1/Mul", "StatefulPartitionedCall/model/tf.expand_dims_5/ExpandDims/dim"], "attr": {"T": {"type": "DT_FLOAT"}, "Tdim": {"type": "DT_INT64"}}}, {"name": "StatefulPartitionedCall/model/tf.expand_dims_8/ExpandDims", "op": "ExpandDims", "input": ["StatefulPartitionedCall/model/tf.math.multiply_4/Mul", "StatefulPartitionedCall/model/tf.expand_dims_8/ExpandDims/dim"], "attr": {"T": {"type": "DT_FLOAT"}, "Tdim": {"type": "DT_INT64"}}}, {"name": "StatefulPartitionedCall/model/tf.math.add_4/Add", "op": "AddV2", "input": ["StatefulPartitionedCall/model/conv2d_3/Conv2D", "StatefulPartitionedCall/model/tf.math.add_4/Add/y"], "attr": {"T": {"type": "DT_FLOAT"}}}, {"name": "StatefulPartitionedCall/model/tf.math.multiply_2/Mul", "op": "Mul", "input": ["StatefulPartitionedCall/model/tf.expand_dims_5/ExpandDims", "unknown_19"], "attr": {"T": {"type": "DT_FLOAT"}}}, {"name": "StatefulPartitionedCall/model/tf.math.multiply_5/Mul", "op": "Mul", "input": ["StatefulPartitionedCall/model/tf.expand_dims_8/ExpandDims", "unknown_18"], "attr": {"T": {"type": "DT_FLOAT"}}}, {"name": "StatefulPartitionedCall/model/tf.nn.relu_3/Relu", "op": "Relu", "input": ["StatefulPartitionedCall/model/tf.math.add_4/Add"], "attr": {"T": {"type": "DT_FLOAT"}}}, {"name": "StatefulPartitionedCall/model/tf.compat.v1.transpose_2/transpose", "op": "Transpose", "input": ["StatefulPartitionedCall/model/tf.math.multiply_2/Mul", "StatefulPartitionedCall/model/tf.compat.v1.transpose_2/transpose/perm"], "attr": {"Tperm": {"type": "DT_INT32"}, "T": {"type": "DT_FLOAT"}}}, {"name": "StatefulPartitionedCall/model/tf.compat.v1.transpose_5/transpose", "op": "Transpose", "input": ["StatefulPartitionedCall/model/tf.math.multiply_5/Mul", "StatefulPartitionedCall/model/tf.compat.v1.transpose_5/transpose/perm"], "attr": {"T": {"type": "DT_FLOAT"}, "Tperm": {"type": "DT_INT32"}}}, {"name": "StatefulPartitionedCall/model/zero_padding2d_5/Pad", "op": "Pad", "input": ["StatefulPartitionedCall/model/tf.nn.relu_3/Relu", "StatefulPartitionedCall/model/zero_padding2d_5/Pad/paddings"], "attr": {"Tpaddings": {"type": "DT_INT32"}, "T": {"type": "DT_FLOAT"}}}, {"name": "StatefulPartitionedCall/model/tf.strided_slice_1/StridedSlice", "op": "StridedSlice", "input": ["StatefulPartitionedCall/model/tf.compat.v1.transpose_2/transpose", "StatefulPartitionedCall/model/tf.strided_slice_1/StridedSlice/begin", "StatefulPartitionedCall/model/tf.strided_slice_1/StridedSlice/end", "StatefulPartitionedCall/model/tf.strided_slice_1/StridedSlice/strides"], "attr": {"ellipsis_mask": {"i": "0"}, "end_mask": {"i": "2"}, "shrink_axis_mask": {"i": "0"}, "new_axis_mask": {"i": "0"}, "begin_mask": {"i": "2"}, "T": {"type": "DT_FLOAT"}, "Index": {"type": "DT_INT64"}}}, {"name": "StatefulPartitionedCall/model/tf.strided_slice_2/StridedSlice", "op": "StridedSlice", "input": ["StatefulPartitionedCall/model/tf.compat.v1.transpose_2/transpose", "StatefulPartitionedCall/model/tf.strided_slice_2/StridedSlice/begin", "StatefulPartitionedCall/model/tf.strided_slice_2/StridedSlice/end", "StatefulPartitionedCall/model/tf.strided_slice_2/StridedSlice/strides"], "attr": {"new_axis_mask": {"i": "0"}, "end_mask": {"i": "2"}, "begin_mask": {"i": "2"}, "shrink_axis_mask": {"i": "0"}, "Index": {"type": "DT_INT64"}, "T": {"type": "DT_FLOAT"}, "ellipsis_mask": {"i": "0"}}}, {"name": "StatefulPartitionedCall/model/tf.strided_slice_4/StridedSlice", "op": "StridedSlice", "input": ["StatefulPartitionedCall/model/tf.compat.v1.transpose_5/transpose", "StatefulPartitionedCall/model/tf.strided_slice_4/StridedSlice/begin", "StatefulPartitionedCall/model/tf.strided_slice_4/StridedSlice/end", "StatefulPartitionedCall/model/tf.strided_slice_4/StridedSlice/strides"], "attr": {"T": {"type": "DT_FLOAT"}, "Index": {"type": "DT_INT64"}, "end_mask": {"i": "2"}, "begin_mask": {"i": "2"}, "ellipsis_mask": {"i": "0"}, "new_axis_mask": {"i": "0"}, "shrink_axis_mask": {"i": "0"}}}, {"name": "StatefulPartitionedCall/model/tf.strided_slice_5/StridedSlice", "op": "StridedSlice", "input": ["StatefulPartitionedCall/model/tf.compat.v1.transpose_5/transpose", "StatefulPartitionedCall/model/tf.strided_slice_5/StridedSlice/begin", "StatefulPartitionedCall/model/tf.strided_slice_5/StridedSlice/end", "StatefulPartitionedCall/model/tf.strided_slice_5/StridedSlice/strides"], "attr": {"new_axis_mask": {"i": "0"}, "begin_mask": {"i": "2"}, "end_mask": {"i": "2"}, "shrink_axis_mask": {"i": "0"}, "Index": {"type": "DT_INT64"}, "T": {"type": "DT_FLOAT"}, "ellipsis_mask": {"i": "0"}}}, {"name": "StatefulPartitionedCall/model/conv2d_4/Conv2D", "op": "Conv2D", "input": ["StatefulPartitionedCall/model/zero_padding2d_5/Pad", "StatefulPartitionedCall/model/conv2d_4/Conv2D/ReadVariableOp"], "device": "/device:CPU:0", "attr": {"explicit_paddings": {"list": {}}, "dilations": {"list": {"i": ["1", "1", "1", "1"]}}, "strides": {"list": {"i": ["1", "1", "1", "1"]}}, "T": {"type": "DT_FLOAT"}, "use_cudnn_on_gpu": {"b": true}, "data_format": {"s": "TkhXQw=="}, "padding": {"s": "VkFMSUQ="}}}, {"name": "StatefulPartitionedCall/model/tf.math.sin/Sin", "op": "Sin", "input": ["StatefulPartitionedCall/model/tf.strided_slice_1/StridedSlice"], "attr": {"T": {"type": "DT_FLOAT"}}}, {"name": "StatefulPartitionedCall/model/tf.math.cos/Cos", "op": "Cos", "input": ["StatefulPartitionedCall/model/tf.strided_slice_2/StridedSlice"], "attr": {"T": {"type": "DT_FLOAT"}}}, {"name": "StatefulPartitionedCall/model/tf.math.sin_1/Sin", "op": "Sin", "input": ["StatefulPartitionedCall/model/tf.strided_slice_4/StridedSlice"], "attr": {"T": {"type": "DT_FLOAT"}}}, {"name": "StatefulPartitionedCall/model/tf.math.cos_1/Cos", "op": "Cos", "input": ["StatefulPartitionedCall/model/tf.strided_slice_5/StridedSlice"], "attr": {"T": {"type": "DT_FLOAT"}}}, {"name": "StatefulPartitionedCall/model/tf.math.add_5/Add", "op": "AddV2", "input": ["StatefulPartitionedCall/model/conv2d_4/Conv2D", "StatefulPartitionedCall/model/tf.math.add_5/Add/y"], "attr": {"T": {"type": "DT_FLOAT"}}}, {"name": "StatefulPartitionedCall/model/tf.compat.v1.transpose_3/transpose", "op": "Transpose", "input": ["StatefulPartitionedCall/model/tf.math.sin/Sin", "StatefulPartitionedCall/model/tf.compat.v1.transpose_3/transpose/perm"], "attr": {"T": {"type": "DT_FLOAT"}, "Tperm": {"type": "DT_INT32"}}}, {"name": "StatefulPartitionedCall/model/tf.compat.v1.transpose_4/transpose", "op": "Transpose", "input": ["StatefulPartitionedCall/model/tf.math.cos/Cos", "StatefulPartitionedCall/model/tf.compat.v1.transpose_4/transpose/perm"], "attr": {"T": {"type": "DT_FLOAT"}, "Tperm": {"type": "DT_INT32"}}}, {"name": "StatefulPartitionedCall/model/tf.compat.v1.transpose_6/transpose", "op": "Transpose", "input": ["StatefulPartitionedCall/model/tf.math.sin_1/Sin", "StatefulPartitionedCall/model/tf.compat.v1.transpose_6/transpose/perm"], "attr": {"T": {"type": "DT_FLOAT"}, "Tperm": {"type": "DT_INT32"}}}, {"name": "StatefulPartitionedCall/model/tf.compat.v1.transpose_7/transpose", "op": "Transpose", "input": ["StatefulPartitionedCall/model/tf.math.cos_1/Cos", "StatefulPartitionedCall/model/tf.compat.v1.transpose_7/transpose/perm"], "attr": {"T": {"type": "DT_FLOAT"}, "Tperm": {"type": "DT_INT32"}}}, {"name": "StatefulPartitionedCall/model/tf.math.add_7/Add", "op": "AddV2", "input": ["StatefulPartitionedCall/model/tf.math.add_5/Add", "StatefulPartitionedCall/model/tf.math.add_6/Add"], "attr": {"T": {"type": "DT_FLOAT"}}}, {"name": "StatefulPartitionedCall/model/tf.expand_dims_6/ExpandDims", "op": "ExpandDims", "input": ["StatefulPartitionedCall/model/tf.compat.v1.transpose_3/transpose", "StatefulPartitionedCall/model/tf.expand_dims_6/ExpandDims/dim"], "attr": {"T": {"type": "DT_FLOAT"}, "Tdim": {"type": "DT_INT64"}}}, {"name": "StatefulPartitionedCall/model/tf.expand_dims_7/ExpandDims", "op": "ExpandDims", "input": ["StatefulPartitionedCall/model/tf.compat.v1.transpose_4/transpose", "StatefulPartitionedCall/model/tf.expand_dims_7/ExpandDims/dim"], "attr": {"Tdim": {"type": "DT_INT64"}, "T": {"type": "DT_FLOAT"}}}, {"name": "StatefulPartitionedCall/model/tf.expand_dims_9/ExpandDims", "op": "ExpandDims", "input": ["StatefulPartitionedCall/model/tf.compat.v1.transpose_6/transpose", "StatefulPartitionedCall/model/tf.expand_dims_9/ExpandDims/dim"], "attr": {"Tdim": {"type": "DT_INT64"}, "T": {"type": "DT_FLOAT"}}}, {"name": "StatefulPartitionedCall/model/tf.expand_dims_10/ExpandDims", "op": "ExpandDims", "input": ["StatefulPartitionedCall/model/tf.compat.v1.transpose_7/transpose", "StatefulPartitionedCall/model/tf.expand_dims_10/ExpandDims/dim"], "attr": {"Tdim": {"type": "DT_INT64"}, "T": {"type": "DT_FLOAT"}}}, {"name": "StatefulPartitionedCall/model/tf.nn.relu_4/Relu", "op": "Relu", "input": ["StatefulPartitionedCall/model/tf.math.add_7/Add"], "attr": {"T": {"type": "DT_FLOAT"}}}, {"name": "StatefulPartitionedCall/model/tf.concat/concat", "op": "ConcatV2", "input": ["StatefulPartitionedCall/model/tf.expand_dims_6/ExpandDims", "StatefulPartitionedCall/model/tf.expand_dims_7/ExpandDims", "StatefulPartitionedCall/model/tf.concat/concat/axis"], "attr": {"Tidx": {"type": "DT_INT32"}, "N": {"i": "2"}, "T": {"type": "DT_FLOAT"}}}, {"name": "StatefulPartitionedCall/model/tf.concat_1/concat", "op": "ConcatV2", "input": ["StatefulPartitionedCall/model/tf.expand_dims_9/ExpandDims", "StatefulPartitionedCall/model/tf.expand_dims_10/ExpandDims", "StatefulPartitionedCall/model/tf.concat_1/concat/axis"], "attr": {"T": {"type": "DT_FLOAT"}, "N": {"i": "2"}, "Tidx": {"type": "DT_INT32"}}}, {"name": "StatefulPartitionedCall/model/zero_padding2d_6/Pad", "op": "Pad", "input": ["StatefulPartitionedCall/model/tf.nn.relu_4/Relu", "StatefulPartitionedCall/model/zero_padding2d_6/Pad/paddings"], "attr": {"T": {"type": "DT_FLOAT"}, "Tpaddings": {"type": "DT_INT32"}}}, {"name": "StatefulPartitionedCall/model/tf.reshape_2/Reshape", "op": "Reshape", "input": ["StatefulPartitionedCall/model/tf.concat/concat", "StatefulPartitionedCall/model/tf.reshape_2/Reshape/shape"], "attr": {"Tshape": {"type": "DT_INT32"}, "T": {"type": "DT_FLOAT"}}}, {"name": "StatefulPartitionedCall/model/tf.reshape_3/Reshape", "op": "Reshape", "input": ["StatefulPartitionedCall/model/tf.concat_1/concat", "StatefulPartitionedCall/model/tf.reshape_3/Reshape/shape"], "attr": {"T": {"type": "DT_FLOAT"}, "Tshape": {"type": "DT_INT32"}}}, {"name": "StatefulPartitionedCall/model/conv2d_6/Conv2D", "op": "Conv2D", "input": ["StatefulPartitionedCall/model/zero_padding2d_6/Pad", "StatefulPartitionedCall/model/conv2d_6/Conv2D/ReadVariableOp"], "device": "/device:CPU:0", "attr": {"use_cudnn_on_gpu": {"b": true}, "padding": {"s": "VkFMSUQ="}, "data_format": {"s": "TkhXQw=="}, "T": {"type": "DT_FLOAT"}, "strides": {"list": {"i": ["1", "1", "1", "1"]}}, "explicit_paddings": {"list": {}}, "dilations": {"list": {"i": ["1", "1", "1", "1"]}}}}, {"name": "StatefulPartitionedCall/model/tf.concat_2/concat", "op": "ConcatV2", "input": ["StatefulPartitionedCall/model/tf.reshape_2/Reshape", "StatefulPartitionedCall/model/tf.reshape_3/Reshape", "StatefulPartitionedCall/model/tf.concat_2/concat/axis"], "attr": {"N": {"i": "2"}, "Tidx": {"type": "DT_INT32"}, "T": {"type": "DT_FLOAT"}}}, {"name": "StatefulPartitionedCall/model/tf.math.add_8/Add", "op": "AddV2", "input": ["StatefulPartitionedCall/model/conv2d_6/Conv2D", "StatefulPartitionedCall/model/tf.math.add_8/Add/y"], "attr": {"T": {"type": "DT_FLOAT"}}}, {"name": "StatefulPartitionedCall/model/tf.compat.v1.transpose_8/transpose", "op": "Transpose", "input": ["StatefulPartitionedCall/model/tf.concat_2/concat", "StatefulPartitionedCall/model/tf.compat.v1.transpose_8/transpose/perm"], "attr": {"T": {"type": "DT_FLOAT"}, "Tperm": {"type": "DT_INT32"}}}, {"name": "StatefulPartitionedCall/model/tf.nn.relu_5/Relu", "op": "Relu", "input": ["StatefulPartitionedCall/model/tf.math.add_8/Add"], "attr": {"T": {"type": "DT_FLOAT"}}}, {"name": "StatefulPartitionedCall/model/tf.reshape_4/Reshape", "op": "Reshape", "input": ["StatefulPartitionedCall/model/tf.compat.v1.transpose_8/transpose", "StatefulPartitionedCall/model/tf.reshape_4/Reshape/shape"], "attr": {"T": {"type": "DT_FLOAT"}, "Tshape": {"type": "DT_INT32"}}}, {"name": "StatefulPartitionedCall/model/zero_padding2d_7/Pad", "op": "Pad", "input": ["StatefulPartitionedCall/model/tf.nn.relu_5/Relu", "StatefulPartitionedCall/model/zero_padding2d_7/Pad/paddings"], "attr": {"T": {"type": "DT_FLOAT"}, "Tpaddings": {"type": "DT_INT32"}}}, {"name": "StatefulPartitionedCall/model/tf.compat.v1.transpose_9/transpose", "op": "Transpose", "input": ["StatefulPartitionedCall/model/tf.reshape_4/Reshape", "StatefulPartitionedCall/model/tf.compat.v1.transpose_9/transpose/perm"], "attr": {"T": {"type": "DT_FLOAT"}, "Tperm": {"type": "DT_INT32"}}}, {"name": "StatefulPartitionedCall/model/conv2d_7/Conv2D", "op": "Conv2D", "input": ["StatefulPartitionedCall/model/zero_padding2d_7/Pad", "StatefulPartitionedCall/model/conv2d_7/Conv2D/ReadVariableOp"], "device": "/device:CPU:0", "attr": {"dilations": {"list": {"i": ["1", "1", "1", "1"]}}, "data_format": {"s": "TkhXQw=="}, "explicit_paddings": {"list": {}}, "strides": {"list": {"i": ["1", "1", "1", "1"]}}, "use_cudnn_on_gpu": {"b": true}, "padding": {"s": "VkFMSUQ="}, "T": {"type": "DT_FLOAT"}}}, {"name": "StatefulPartitionedCall/model/tf.math.add_9/Add", "op": "AddV2", "input": ["StatefulPartitionedCall/model/conv2d_7/Conv2D", "StatefulPartitionedCall/model/tf.math.add_9/Add/y"], "attr": {"T": {"type": "DT_FLOAT"}}}, {"name": "StatefulPartitionedCall/model/tf.math.add_10/Add", "op": "AddV2", "input": ["StatefulPartitionedCall/model/tf.nn.relu_4/Relu", "StatefulPartitionedCall/model/tf.math.add_9/Add"], "attr": {"T": {"type": "DT_FLOAT"}}}, {"name": "StatefulPartitionedCall/model/tf.nn.relu_6/Relu", "op": "Relu", "input": ["StatefulPartitionedCall/model/tf.math.add_10/Add"], "attr": {"T": {"type": "DT_FLOAT"}}}, {"name": "StatefulPartitionedCall/model/zero_padding2d_8/Pad", "op": "Pad", "input": ["StatefulPartitionedCall/model/tf.nn.relu_6/Relu", "StatefulPartitionedCall/model/zero_padding2d_8/Pad/paddings"], "attr": {"Tpaddings": {"type": "DT_INT32"}, "T": {"type": "DT_FLOAT"}}}, {"name": "StatefulPartitionedCall/model/conv2d_10/Conv2D", "op": "Conv2D", "input": ["StatefulPartitionedCall/model/tf.nn.relu_6/Relu", "StatefulPartitionedCall/model/conv2d_10/Conv2D/ReadVariableOp"], "device": "/device:CPU:0", "attr": {"dilations": {"list": {"i": ["1", "1", "1", "1"]}}, "explicit_paddings": {"list": {}}, "strides": {"list": {"i": ["1", "2", "2", "1"]}}, "padding": {"s": "VkFMSUQ="}, "data_format": {"s": "TkhXQw=="}, "T": {"type": "DT_FLOAT"}, "use_cudnn_on_gpu": {"b": true}}}, {"name": "StatefulPartitionedCall/model/conv2d_8/Conv2D", "op": "Conv2D", "input": ["StatefulPartitionedCall/model/zero_padding2d_8/Pad", "StatefulPartitionedCall/model/conv2d_8/Conv2D/ReadVariableOp"], "device": "/device:CPU:0", "attr": {"data_format": {"s": "TkhXQw=="}, "strides": {"list": {"i": ["1", "2", "2", "1"]}}, "padding": {"s": "VkFMSUQ="}, "T": {"type": "DT_FLOAT"}, "dilations": {"list": {"i": ["1", "1", "1", "1"]}}, "use_cudnn_on_gpu": {"b": true}, "explicit_paddings": {"list": {}}}}, {"name": "StatefulPartitionedCall/model/tf.math.add_13/Add", "op": "AddV2", "input": ["StatefulPartitionedCall/model/conv2d_10/Conv2D", "StatefulPartitionedCall/model/tf.math.add_13/Add/y"], "attr": {"T": {"type": "DT_FLOAT"}}}, {"name": "StatefulPartitionedCall/model/tf.math.add_11/Add", "op": "AddV2", "input": ["StatefulPartitionedCall/model/conv2d_8/Conv2D", "StatefulPartitionedCall/model/tf.math.add_11/Add/y"], "attr": {"T": {"type": "DT_FLOAT"}}}, {"name": "StatefulPartitionedCall/model/tf.nn.relu_7/Relu", "op": "Relu", "input": ["StatefulPartitionedCall/model/tf.math.add_11/Add"], "attr": {"T": {"type": "DT_FLOAT"}}}, {"name": "StatefulPartitionedCall/model/zero_padding2d_9/Pad", "op": "Pad", "input": ["StatefulPartitionedCall/model/tf.nn.relu_7/Relu", "StatefulPartitionedCall/model/zero_padding2d_9/Pad/paddings"], "attr": {"T": {"type": "DT_FLOAT"}, "Tpaddings": {"type": "DT_INT32"}}}, {"name": "StatefulPartitionedCall/model/conv2d_9/Conv2D", "op": "Conv2D", "input": ["StatefulPartitionedCall/model/zero_padding2d_9/Pad", "StatefulPartitionedCall/model/conv2d_9/Conv2D/ReadVariableOp"], "device": "/device:CPU:0", "attr": {"strides": {"list": {"i": ["1", "1", "1", "1"]}}, "dilations": {"list": {"i": ["1", "1", "1", "1"]}}, "explicit_paddings": {"list": {}}, "use_cudnn_on_gpu": {"b": true}, "T": {"type": "DT_FLOAT"}, "padding": {"s": "VkFMSUQ="}, "data_format": {"s": "TkhXQw=="}}}, {"name": "StatefulPartitionedCall/model/tf.math.add_12/Add", "op": "AddV2", "input": ["StatefulPartitionedCall/model/conv2d_9/Conv2D", "StatefulPartitionedCall/model/tf.math.add_12/Add/y"], "attr": {"T": {"type": "DT_FLOAT"}}}, {"name": "StatefulPartitionedCall/model/tf.math.add_14/Add", "op": "AddV2", "input": ["StatefulPartitionedCall/model/tf.math.add_12/Add", "StatefulPartitionedCall/model/tf.math.add_13/Add"], "attr": {"T": {"type": "DT_FLOAT"}}}, {"name": "StatefulPartitionedCall/model/tf.nn.relu_8/Relu", "op": "Relu", "input": ["StatefulPartitionedCall/model/tf.math.add_14/Add"], "attr": {"T": {"type": "DT_FLOAT"}}}, {"name": "StatefulPartitionedCall/model/zero_padding2d_10/Pad", "op": "Pad", "input": ["StatefulPartitionedCall/model/tf.nn.relu_8/Relu", "StatefulPartitionedCall/model/zero_padding2d_10/Pad/paddings"], "attr": {"T": {"type": "DT_FLOAT"}, "Tpaddings": {"type": "DT_INT32"}}}, {"name": "StatefulPartitionedCall/model/conv2d_11/Conv2D", "op": "Conv2D", "input": ["StatefulPartitionedCall/model/zero_padding2d_10/Pad", "StatefulPartitionedCall/model/conv2d_11/Conv2D/ReadVariableOp"], "device": "/device:CPU:0", "attr": {"dilations": {"list": {"i": ["1", "1", "1", "1"]}}, "use_cudnn_on_gpu": {"b": true}, "explicit_paddings": {"list": {}}, "padding": {"s": "VkFMSUQ="}, "data_format": {"s": "TkhXQw=="}, "T": {"type": "DT_FLOAT"}, "strides": {"list": {"i": ["1", "1", "1", "1"]}}}}, {"name": "StatefulPartitionedCall/model/tf.math.add_15/Add", "op": "AddV2", "input": ["StatefulPartitionedCall/model/conv2d_11/Conv2D", "StatefulPartitionedCall/model/tf.math.add_15/Add/y"], "attr": {"T": {"type": "DT_FLOAT"}}}, {"name": "StatefulPartitionedCall/model/tf.nn.relu_9/Relu", "op": "Relu", "input": ["StatefulPartitionedCall/model/tf.math.add_15/Add"], "attr": {"T": {"type": "DT_FLOAT"}}}, {"name": "StatefulPartitionedCall/model/zero_padding2d_11/Pad", "op": "Pad", "input": ["StatefulPartitionedCall/model/tf.nn.relu_9/Relu", "StatefulPartitionedCall/model/zero_padding2d_11/Pad/paddings"], "attr": {"Tpaddings": {"type": "DT_INT32"}, "T": {"type": "DT_FLOAT"}}}, {"name": "StatefulPartitionedCall/model/conv2d_12/Conv2D", "op": "Conv2D", "input": ["StatefulPartitionedCall/model/zero_padding2d_11/Pad", "StatefulPartitionedCall/model/conv2d_12/Conv2D/ReadVariableOp"], "device": "/device:CPU:0", "attr": {"dilations": {"list": {"i": ["1", "1", "1", "1"]}}, "T": {"type": "DT_FLOAT"}, "strides": {"list": {"i": ["1", "1", "1", "1"]}}, "data_format": {"s": "TkhXQw=="}, "explicit_paddings": {"list": {}}, "use_cudnn_on_gpu": {"b": true}, "padding": {"s": "VkFMSUQ="}}}, {"name": "StatefulPartitionedCall/model/tf.math.add_16/Add", "op": "AddV2", "input": ["StatefulPartitionedCall/model/conv2d_12/Conv2D", "StatefulPartitionedCall/model/tf.math.add_16/Add/y"], "attr": {"T": {"type": "DT_FLOAT"}}}, {"name": "StatefulPartitionedCall/model/tf.math.add_17/Add", "op": "AddV2", "input": ["StatefulPartitionedCall/model/tf.nn.relu_8/Relu", "StatefulPartitionedCall/model/tf.math.add_16/Add"], "attr": {"T": {"type": "DT_FLOAT"}}}, {"name": "StatefulPartitionedCall/model/tf.nn.relu_10/Relu", "op": "Relu", "input": ["StatefulPartitionedCall/model/tf.math.add_17/Add"], "attr": {"T": {"type": "DT_FLOAT"}}}, {"name": "StatefulPartitionedCall/model/zero_padding2d_12/Pad", "op": "Pad", "input": ["StatefulPartitionedCall/model/tf.nn.relu_10/Relu", "StatefulPartitionedCall/model/zero_padding2d_12/Pad/paddings"], "attr": {"Tpaddings": {"type": "DT_INT32"}, "T": {"type": "DT_FLOAT"}}}, {"name": "StatefulPartitionedCall/model/conv2d_15/Conv2D", "op": "Conv2D", "input": ["StatefulPartitionedCall/model/tf.nn.relu_10/Relu", "StatefulPartitionedCall/model/conv2d_15/Conv2D/ReadVariableOp"], "device": "/device:CPU:0", "attr": {"T": {"type": "DT_FLOAT"}, "padding": {"s": "VkFMSUQ="}, "dilations": {"list": {"i": ["1", "1", "1", "1"]}}, "explicit_paddings": {"list": {}}, "use_cudnn_on_gpu": {"b": true}, "data_format": {"s": "TkhXQw=="}, "strides": {"list": {"i": ["1", "2", "2", "1"]}}}}, {"name": "StatefulPartitionedCall/model/conv2d_13/Conv2D", "op": "Conv2D", "input": ["StatefulPartitionedCall/model/zero_padding2d_12/Pad", "StatefulPartitionedCall/model/conv2d_13/Conv2D/ReadVariableOp"], "device": "/device:CPU:0", "attr": {"padding": {"s": "VkFMSUQ="}, "data_format": {"s": "TkhXQw=="}, "dilations": {"list": {"i": ["1", "1", "1", "1"]}}, "T": {"type": "DT_FLOAT"}, "use_cudnn_on_gpu": {"b": true}, "explicit_paddings": {"list": {}}, "strides": {"list": {"i": ["1", "2", "2", "1"]}}}}, {"name": "StatefulPartitionedCall/model/tf.math.add_20/Add", "op": "AddV2", "input": ["StatefulPartitionedCall/model/conv2d_15/Conv2D", "StatefulPartitionedCall/model/tf.math.add_20/Add/y"], "attr": {"T": {"type": "DT_FLOAT"}}}, {"name": "StatefulPartitionedCall/model/tf.math.add_18/Add", "op": "AddV2", "input": ["StatefulPartitionedCall/model/conv2d_13/Conv2D", "StatefulPartitionedCall/model/tf.math.add_18/Add/y"], "attr": {"T": {"type": "DT_FLOAT"}}}, {"name": "StatefulPartitionedCall/model/tf.nn.relu_11/Relu", "op": "Relu", "input": ["StatefulPartitionedCall/model/tf.math.add_18/Add"], "attr": {"T": {"type": "DT_FLOAT"}}}, {"name": "StatefulPartitionedCall/model/zero_padding2d_13/Pad", "op": "Pad", "input": ["StatefulPartitionedCall/model/tf.nn.relu_11/Relu", "StatefulPartitionedCall/model/zero_padding2d_13/Pad/paddings"], "attr": {"Tpaddings": {"type": "DT_INT32"}, "T": {"type": "DT_FLOAT"}}}, {"name": "StatefulPartitionedCall/model/conv2d_14/Conv2D", "op": "Conv2D", "input": ["StatefulPartitionedCall/model/zero_padding2d_13/Pad", "StatefulPartitionedCall/model/conv2d_14/Conv2D/ReadVariableOp"], "device": "/device:CPU:0", "attr": {"T": {"type": "DT_FLOAT"}, "data_format": {"s": "TkhXQw=="}, "padding": {"s": "VkFMSUQ="}, "explicit_paddings": {"list": {}}, "use_cudnn_on_gpu": {"b": true}, "dilations": {"list": {"i": ["1", "1", "1", "1"]}}, "strides": {"list": {"i": ["1", "1", "1", "1"]}}}}, {"name": "StatefulPartitionedCall/model/tf.math.add_19/Add", "op": "AddV2", "input": ["StatefulPartitionedCall/model/conv2d_14/Conv2D", "StatefulPartitionedCall/model/tf.math.add_19/Add/y"], "attr": {"T": {"type": "DT_FLOAT"}}}, {"name": "StatefulPartitionedCall/model/tf.math.add_21/Add", "op": "AddV2", "input": ["StatefulPartitionedCall/model/tf.math.add_19/Add", "StatefulPartitionedCall/model/tf.math.add_20/Add"], "attr": {"T": {"type": "DT_FLOAT"}}}, {"name": "StatefulPartitionedCall/model/tf.nn.relu_12/Relu", "op": "Relu", "input": ["StatefulPartitionedCall/model/tf.math.add_21/Add"], "attr": {"T": {"type": "DT_FLOAT"}}}, {"name": "StatefulPartitionedCall/model/zero_padding2d_14/Pad", "op": "Pad", "input": ["StatefulPartitionedCall/model/tf.nn.relu_12/Relu", "StatefulPartitionedCall/model/zero_padding2d_14/Pad/paddings"], "attr": {"Tpaddings": {"type": "DT_INT32"}, "T": {"type": "DT_FLOAT"}}}, {"name": "StatefulPartitionedCall/model/conv2d_16/Conv2D", "op": "Conv2D", "input": ["StatefulPartitionedCall/model/zero_padding2d_14/Pad", "StatefulPartitionedCall/model/conv2d_16/Conv2D/ReadVariableOp"], "device": "/device:CPU:0", "attr": {"use_cudnn_on_gpu": {"b": true}, "explicit_paddings": {"list": {}}, "dilations": {"list": {"i": ["1", "1", "1", "1"]}}, "T": {"type": "DT_FLOAT"}, "data_format": {"s": "TkhXQw=="}, "padding": {"s": "VkFMSUQ="}, "strides": {"list": {"i": ["1", "1", "1", "1"]}}}}, {"name": "StatefulPartitionedCall/model/tf.math.add_22/Add", "op": "AddV2", "input": ["StatefulPartitionedCall/model/conv2d_16/Conv2D", "StatefulPartitionedCall/model/tf.math.add_22/Add/y"], "attr": {"T": {"type": "DT_FLOAT"}}}, {"name": "StatefulPartitionedCall/model/tf.nn.relu_13/Relu", "op": "Relu", "input": ["StatefulPartitionedCall/model/tf.math.add_22/Add"], "attr": {"T": {"type": "DT_FLOAT"}}}, {"name": "StatefulPartitionedCall/model/zero_padding2d_15/Pad", "op": "Pad", "input": ["StatefulPartitionedCall/model/tf.nn.relu_13/Relu", "StatefulPartitionedCall/model/zero_padding2d_15/Pad/paddings"], "attr": {"Tpaddings": {"type": "DT_INT32"}, "T": {"type": "DT_FLOAT"}}}, {"name": "StatefulPartitionedCall/model/conv2d_17/Conv2D", "op": "Conv2D", "input": ["StatefulPartitionedCall/model/zero_padding2d_15/Pad", "StatefulPartitionedCall/model/conv2d_17/Conv2D/ReadVariableOp"], "device": "/device:CPU:0", "attr": {"strides": {"list": {"i": ["1", "1", "1", "1"]}}, "explicit_paddings": {"list": {}}, "padding": {"s": "VkFMSUQ="}, "dilations": {"list": {"i": ["1", "1", "1", "1"]}}, "use_cudnn_on_gpu": {"b": true}, "data_format": {"s": "TkhXQw=="}, "T": {"type": "DT_FLOAT"}}}, {"name": "StatefulPartitionedCall/model/tf.math.add_23/Add", "op": "AddV2", "input": ["StatefulPartitionedCall/model/conv2d_17/Conv2D", "StatefulPartitionedCall/model/tf.math.add_23/Add/y"], "attr": {"T": {"type": "DT_FLOAT"}}}, {"name": "StatefulPartitionedCall/model/tf.math.add_24/Add", "op": "AddV2", "input": ["StatefulPartitionedCall/model/tf.nn.relu_12/Relu", "StatefulPartitionedCall/model/tf.math.add_23/Add"], "attr": {"T": {"type": "DT_FLOAT"}}}, {"name": "StatefulPartitionedCall/model/tf.nn.relu_14/Relu", "op": "Relu", "input": ["StatefulPartitionedCall/model/tf.math.add_24/Add"], "attr": {"T": {"type": "DT_FLOAT"}}}, {"name": "StatefulPartitionedCall/model/conv2d_18/Conv2D", "op": "Conv2D", "input": ["StatefulPartitionedCall/model/tf.nn.relu_14/Relu", "StatefulPartitionedCall/model/conv2d_18/Conv2D/ReadVariableOp"], "device": "/device:CPU:0", "attr": {"dilations": {"list": {"i": ["1", "1", "1", "1"]}}, "padding": {"s": "VkFMSUQ="}, "T": {"type": "DT_FLOAT"}, "explicit_paddings": {"list": {}}, "use_cudnn_on_gpu": {"b": true}, "data_format": {"s": "TkhXQw=="}, "strides": {"list": {"i": ["1", "1", "1", "1"]}}}}, {"name": "StatefulPartitionedCall/model/tf.math.add_25/Add", "op": "AddV2", "input": ["StatefulPartitionedCall/model/conv2d_18/Conv2D", "StatefulPartitionedCall/model/tf.math.add_25/Add/y"], "attr": {"T": {"type": "DT_FLOAT"}}}, {"name": "StatefulPartitionedCall/model/tf.reshape_1/Reshape", "op": "Reshape", "input": ["StatefulPartitionedCall/model/tf.math.add_25/Add", "StatefulPartitionedCall/model/tf.reshape_1/Reshape/shape"], "attr": {"Tshape": {"type": "DT_INT32"}, "T": {"type": "DT_FLOAT"}}}, {"name": "StatefulPartitionedCall/model/tf.compat.v1.transpose_1/transpose", "op": "Transpose", "input": ["StatefulPartitionedCall/model/tf.reshape_1/Reshape", "StatefulPartitionedCall/model/tf.compat.v1.transpose_1/transpose/perm"], "attr": {"T": {"type": "DT_FLOAT"}, "Tperm": {"type": "DT_INT32"}}}, {"name": "StatefulPartitionedCall/model/tf.math.add_28/Add", "op": "AddV2", "input": ["StatefulPartitionedCall/model/tf.compat.v1.transpose_1/transpose", "StatefulPartitionedCall/model/tf.compat.v1.transpose_9/transpose"], "attr": {"T": {"type": "DT_FLOAT"}}}, {"name": "StatefulPartitionedCall/model/tf.linalg.matmul_3/MatMul", "op": "BatchMatMulV2", "input": ["StatefulPartitionedCall/model/tf.compat.v1.transpose_1/transpose", "StatefulPartitionedCall/model/tf.linalg.matmul_3/MatMul/b"], "attr": {"adj_x": {"b": false}, "adj_y": {"b": true}, "T": {"type": "DT_FLOAT"}}}, {"name": "StatefulPartitionedCall/model/tf.linalg.matmul/MatMul", "op": "BatchMatMulV2", "input": ["StatefulPartitionedCall/model/tf.math.add_28/Add", "StatefulPartitionedCall/model/tf.linalg.matmul/MatMul/b"], "attr": {"adj_x": {"b": false}, "adj_y": {"b": true}, "T": {"type": "DT_FLOAT"}}}, {"name": "StatefulPartitionedCall/model/tf.linalg.matmul_1/MatMul", "op": "BatchMatMulV2", "input": ["StatefulPartitionedCall/model/tf.math.add_28/Add", "StatefulPartitionedCall/model/tf.linalg.matmul_1/MatMul/b"], "attr": {"T": {"type": "DT_FLOAT"}, "adj_x": {"b": false}, "adj_y": {"b": true}}}, {"name": "StatefulPartitionedCall/model/tf.math.add_31/Add", "op": "AddV2", "input": ["StatefulPartitionedCall/model/tf.linalg.matmul_3/MatMul", "StatefulPartitionedCall/model/tf.math.add_31/Add/y"], "attr": {"T": {"type": "DT_FLOAT"}}}, {"name": "StatefulPartitionedCall/model/tf.math.add_29/Add", "op": "AddV2", "input": ["StatefulPartitionedCall/model/tf.linalg.matmul/MatMul", "StatefulPartitionedCall/model/tf.math.add_29/Add/y"], "attr": {"T": {"type": "DT_FLOAT"}}}, {"name": "StatefulPartitionedCall/model/tf.math.add_30/Add", "op": "AddV2", "input": ["StatefulPartitionedCall/model/tf.linalg.matmul_1/MatMul", "StatefulPartitionedCall/model/tf.math.add_30/Add/y"], "attr": {"T": {"type": "DT_FLOAT"}}}, {"name": "StatefulPartitionedCall/model/tf.reshape_11/Reshape", "op": "Reshape", "input": ["StatefulPartitionedCall/model/tf.math.add_31/Add", "StatefulPartitionedCall/model/tf.reshape_11/Reshape/shape"], "attr": {"T": {"type": "DT_FLOAT"}, "Tshape": {"type": "DT_INT32"}}}, {"name": "StatefulPartitionedCall/model/tf.math.multiply_6/Mul", "op": "Mul", "input": ["StatefulPartitionedCall/model/tf.math.add_29/Add", "StatefulPartitionedCall/model/tf.math.multiply_6/Mul/y"], "attr": {"T": {"type": "DT_FLOAT"}}}, {"name": "StatefulPartitionedCall/model/tf.reshape_6/Reshape", "op": "Reshape", "input": ["StatefulPartitionedCall/model/tf.math.add_30/Add", "StatefulPartitionedCall/model/tf.reshape_6/Reshape/shape"], "attr": {"Tshape": {"type": "DT_INT32"}, "T": {"type": "DT_FLOAT"}}}, {"name": "StatefulPartitionedCall/model/tf.compat.v1.transpose_12/transpose", "op": "Transpose", "input": ["StatefulPartitionedCall/model/tf.reshape_11/Reshape", "StatefulPartitionedCall/model/tf.compat.v1.transpose_12/transpose/perm"], "attr": {"T": {"type": "DT_FLOAT"}, "Tperm": {"type": "DT_INT32"}}}, {"name": "StatefulPartitionedCall/model/tf.reshape_5/Reshape", "op": "Reshape", "input": ["StatefulPartitionedCall/model/tf.math.multiply_6/Mul", "StatefulPartitionedCall/model/tf.reshape_5/Reshape/shape"], "attr": {"T": {"type": "DT_FLOAT"}, "Tshape": {"type": "DT_INT32"}}}, {"name": "StatefulPartitionedCall/model/tf.compat.v1.transpose_11/transpose", "op": "Transpose", "input": ["StatefulPartitionedCall/model/tf.reshape_6/Reshape", "StatefulPartitionedCall/model/tf.compat.v1.transpose_11/transpose/perm"], "attr": {"Tperm": {"type": "DT_INT32"}, "T": {"type": "DT_FLOAT"}}}, {"name": "StatefulPartitionedCall/model/tf.compat.v1.transpose_10/transpose", "op": "Transpose", "input": ["StatefulPartitionedCall/model/tf.reshape_5/Reshape", "StatefulPartitionedCall/model/tf.compat.v1.transpose_10/transpose/perm"], "attr": {"Tperm": {"type": "DT_INT32"}, "T": {"type": "DT_FLOAT"}}}, {"name": "StatefulPartitionedCall/model/tf.linalg.matmul_2/MatMul", "op": "BatchMatMulV2", "input": ["StatefulPartitionedCall/model/tf.compat.v1.transpose_10/transpose", "StatefulPartitionedCall/model/tf.compat.v1.transpose_11/transpose"], "attr": {"T": {"type": "DT_FLOAT"}, "adj_x": {"b": false}, "adj_y": {"b": false}}}, {"name": "StatefulPartitionedCall/model/tf.reshape_7/Reshape", "op": "Reshape", "input": ["StatefulPartitionedCall/model/tf.linalg.matmul_2/MatMul", "StatefulPartitionedCall/model/tf.reshape_7/Reshape/shape"], "attr": {"Tshape": {"type": "DT_INT32"}, "T": {"type": "DT_FLOAT"}}}, {"name": "StatefulPartitionedCall/model/tf.where/SelectV2", "op": "SelectV2", "input": ["StatefulPartitionedCall/model/tf.expand_dims_4/ExpandDims", "StatefulPartitionedCall/model/tf.where/SelectV2/t", "StatefulPartitionedCall/model/tf.reshape_7/Reshape"], "attr": {"T": {"type": "DT_FLOAT"}}}, {"name": "StatefulPartitionedCall/model/tf.reshape_9/Reshape", "op": "Reshape", "input": ["StatefulPartitionedCall/model/tf.where/SelectV2", "unknown_22"], "attr": {"T": {"type": "DT_FLOAT"}, "Tshape": {"type": "DT_INT64"}}}, {"name": "StatefulPartitionedCall/model/tf.nn.softmax/Softmax", "op": "Softmax", "input": ["StatefulPartitionedCall/model/tf.reshape_9/Reshape"], "attr": {"T": {"type": "DT_FLOAT"}}}, {"name": "StatefulPartitionedCall/model/tf.reshape_10/Reshape", "op": "Reshape", "input": ["StatefulPartitionedCall/model/tf.nn.softmax/Softmax", "unknown_23"], "attr": {"T": {"type": "DT_FLOAT"}, "Tshape": {"type": "DT_INT64"}}}, {"name": "StatefulPartitionedCall/model/tf.linalg.matmul_4/MatMul", "op": "BatchMatMulV2", "input": ["StatefulPartitionedCall/model/tf.reshape_10/Reshape", "StatefulPartitionedCall/model/tf.compat.v1.transpose_12/transpose"], "attr": {"adj_y": {"b": false}, "adj_x": {"b": false}, "T": {"type": "DT_FLOAT"}}}, {"name": "StatefulPartitionedCall/model/tf.compat.v1.transpose_13/transpose", "op": "Transpose", "input": ["StatefulPartitionedCall/model/tf.linalg.matmul_4/MatMul", "StatefulPartitionedCall/model/tf.compat.v1.transpose_13/transpose/perm"], "attr": {"Tperm": {"type": "DT_INT32"}, "T": {"type": "DT_FLOAT"}}}, {"name": "StatefulPartitionedCall/model/tf.reshape_12/Reshape", "op": "Reshape", "input": ["StatefulPartitionedCall/model/tf.compat.v1.transpose_13/transpose", "StatefulPartitionedCall/model/tf.reshape_12/Reshape/shape"], "attr": {"Tshape": {"type": "DT_INT32"}, "T": {"type": "DT_FLOAT"}}}, {"name": "StatefulPartitionedCall/model/tf.linalg.matmul_5/MatMul", "op": "BatchMatMulV2", "input": ["StatefulPartitionedCall/model/tf.reshape_12/Reshape", "StatefulPartitionedCall/model/tf.linalg.matmul_5/MatMul/b"], "attr": {"adj_y": {"b": true}, "T": {"type": "DT_FLOAT"}, "adj_x": {"b": false}}}, {"name": "StatefulPartitionedCall/model/tf.math.add_33/ArithmeticOptimizer/AddOpsRewrite_Leaf_1_Add", "op": "AddN", "input": ["StatefulPartitionedCall/model/tf.compat.v1.transpose_1/transpose", "StatefulPartitionedCall/model/tf.linalg.matmul_5/MatMul"], "attr": {"_grappler_ArithmeticOptimizer_AddOpsRewriteStage": {"b": true}, "N": {"i": "2"}, "T": {"type": "DT_FLOAT"}}}, {"name": "StatefulPartitionedCall/model/tf.math.add_33/ArithmeticOptimizer/AddOpsRewrite_Add", "op": "AddV2", "input": ["StatefulPartitionedCall/model/tf.math.add_32/Add/y", "StatefulPartitionedCall/model/tf.math.add_33/ArithmeticOptimizer/AddOpsRewrite_Leaf_1_Add"], "attr": {"T": {"type": "DT_FLOAT"}, "_grappler_ArithmeticOptimizer_AddOpsRewriteStage": {"b": true}}}, {"name": "StatefulPartitionedCall/model/tf.math.reduce_variance/reduce_variance/Mean", "op": "Mean", "input": ["StatefulPartitionedCall/model/tf.math.add_33/ArithmeticOptimizer/AddOpsRewrite_Add", "unknown_24"], "attr": {"T": {"type": "DT_FLOAT"}, "keep_dims": {"b": true}, "Tidx": {"type": "DT_INT32"}}}, {"name": "StatefulPartitionedCall/model/tf.math.reduce_mean/Mean", "op": "Mean", "input": ["StatefulPartitionedCall/model/tf.math.add_33/ArithmeticOptimizer/AddOpsRewrite_Add", "unknown_25"], "attr": {"T": {"type": "DT_FLOAT"}, "Tidx": {"type": "DT_INT32"}, "keep_dims": {"b": true}}}, {"name": "StatefulPartitionedCall/model/tf.math.reduce_variance/reduce_variance/sub", "op": "SquaredDifference", "input": ["StatefulPartitionedCall/model/tf.math.add_33/ArithmeticOptimizer/AddOpsRewrite_Add", "StatefulPartitionedCall/model/tf.math.reduce_variance/reduce_variance/Mean"], "attr": {"T": {"type": "DT_FLOAT"}}}, {"name": "StatefulPartitionedCall/model/tf.math.subtract/Sub", "op": "Sub", "input": ["StatefulPartitionedCall/model/tf.math.add_33/ArithmeticOptimizer/AddOpsRewrite_Add", "StatefulPartitionedCall/model/tf.math.reduce_mean/Mean"], "attr": {"T": {"type": "DT_FLOAT"}}}, {"name": "StatefulPartitionedCall/model/tf.math.reduce_variance/reduce_variance/Mean_1", "op": "Mean", "input": ["StatefulPartitionedCall/model/tf.math.reduce_variance/reduce_variance/sub", "unknown_24"], "attr": {"keep_dims": {"b": true}, "T": {"type": "DT_FLOAT"}, "Tidx": {"type": "DT_INT32"}}}, {"name": "StatefulPartitionedCall/model/tf.__operators__.add/AddV2", "op": "AddV2", "input": ["StatefulPartitionedCall/model/tf.math.reduce_variance/reduce_variance/Mean_1", "StatefulPartitionedCall/model/tf.__operators__.add/y"], "attr": {"T": {"type": "DT_FLOAT"}}}, {"name": "StatefulPartitionedCall/model/tf.math.sqrt/Sqrt", "op": "Rsqrt", "input": ["StatefulPartitionedCall/model/tf.__operators__.add/AddV2"], "attr": {"T": {"type": "DT_FLOAT"}}}, {"name": "StatefulPartitionedCall/model/tf.math.truediv/truediv", "op": "Mul", "input": ["unknown_26", "StatefulPartitionedCall/model/tf.math.sqrt/Sqrt"], "attr": {"T": {"type": "DT_FLOAT"}, "_grappler_ArithmeticOptimizer_MinimizeBroadcasts": {"b": true}}}, {"name": "StatefulPartitionedCall/model/tf.math.multiply_7/Mul", "op": "Mul", "input": ["StatefulPartitionedCall/model/tf.math.truediv/truediv", "StatefulPartitionedCall/model/tf.math.subtract/Sub"], "attr": {"_grappler_ArithmeticOptimizer_MinimizeBroadcasts": {"b": true}, "T": {"type": "DT_FLOAT"}}}, {"name": "StatefulPartitionedCall/model/tf.math.add_34/Add", "op": "AddV2", "input": ["StatefulPartitionedCall/model/tf.math.multiply_7/Mul", "StatefulPartitionedCall/model/tf.math.add_34/Add/y"], "attr": {"T": {"type": "DT_FLOAT"}}}, {"name": "StatefulPartitionedCall/model/tf.linalg.matmul_6/MatMul", "op": "BatchMatMulV2", "input": ["StatefulPartitionedCall/model/tf.math.add_34/Add", "StatefulPartitionedCall/model/tf.linalg.matmul_6/MatMul/b"], "attr": {"T": {"type": "DT_FLOAT"}, "adj_x": {"b": false}, "adj_y": {"b": true}}}, {"name": "StatefulPartitionedCall/model/tf.math.add_35/Add", "op": "AddV2", "input": ["StatefulPartitionedCall/model/tf.linalg.matmul_6/MatMul", "StatefulPartitionedCall/model/tf.math.add_35/Add/y"], "attr": {"T": {"type": "DT_FLOAT"}}}, {"name": "StatefulPartitionedCall/model/tf.nn.relu_15/Relu", "op": "Relu", "input": ["StatefulPartitionedCall/model/tf.math.add_35/Add"], "attr": {"T": {"type": "DT_FLOAT"}}}, {"name": "StatefulPartitionedCall/model/tf.linalg.matmul_7/MatMul", "op": "BatchMatMulV2", "input": ["StatefulPartitionedCall/model/tf.nn.relu_15/Relu", "StatefulPartitionedCall/model/tf.linalg.matmul_7/MatMul/b"], "attr": {"adj_y": {"b": true}, "adj_x": {"b": false}, "T": {"type": "DT_FLOAT"}}}, {"name": "StatefulPartitionedCall/model/tf.math.add_37/ArithmeticOptimizer/AddOpsRewrite_Leaf_1_Add", "op": "AddN", "input": ["StatefulPartitionedCall/model/tf.math.add_34/Add", "StatefulPartitionedCall/model/tf.linalg.matmul_7/MatMul"], "attr": {"T": {"type": "DT_FLOAT"}, "_grappler_ArithmeticOptimizer_AddOpsRewriteStage": {"b": true}, "N": {"i": "2"}}}, {"name": "StatefulPartitionedCall/model/tf.math.add_37/ArithmeticOptimizer/AddOpsRewrite_Add", "op": "AddV2", "input": ["StatefulPartitionedCall/model/tf.math.add_36/Add/y", "StatefulPartitionedCall/model/tf.math.add_37/ArithmeticOptimizer/AddOpsRewrite_Leaf_1_Add"], "attr": {"_grappler_ArithmeticOptimizer_AddOpsRewriteStage": {"b": true}, "T": {"type": "DT_FLOAT"}}}, {"name": "StatefulPartitionedCall/model/tf.math.reduce_variance_1/reduce_variance/Mean", "op": "Mean", "input": ["StatefulPartitionedCall/model/tf.math.add_37/ArithmeticOptimizer/AddOpsRewrite_Add", "unknown_27"], "attr": {"keep_dims": {"b": true}, "Tidx": {"type": "DT_INT32"}, "T": {"type": "DT_FLOAT"}}}, {"name": "StatefulPartitionedCall/model/tf.math.reduce_mean_1/Mean", "op": "Mean", "input": ["StatefulPartitionedCall/model/tf.math.add_37/ArithmeticOptimizer/AddOpsRewrite_Add", "unknown_28"], "attr": {"T": {"type": "DT_FLOAT"}, "Tidx": {"type": "DT_INT32"}, "keep_dims": {"b": true}}}, {"name": "StatefulPartitionedCall/model/tf.math.reduce_variance_1/reduce_variance/sub", "op": "SquaredDifference", "input": ["StatefulPartitionedCall/model/tf.math.add_37/ArithmeticOptimizer/AddOpsRewrite_Add", "StatefulPartitionedCall/model/tf.math.reduce_variance_1/reduce_variance/Mean"], "attr": {"T": {"type": "DT_FLOAT"}}}, {"name": "StatefulPartitionedCall/model/tf.math.subtract_1/Sub", "op": "Sub", "input": ["StatefulPartitionedCall/model/tf.math.add_37/ArithmeticOptimizer/AddOpsRewrite_Add", "StatefulPartitionedCall/model/tf.math.reduce_mean_1/Mean"], "attr": {"T": {"type": "DT_FLOAT"}}}, {"name": "StatefulPartitionedCall/model/tf.math.reduce_variance_1/reduce_variance/Mean_1", "op": "Mean", "input": ["StatefulPartitionedCall/model/tf.math.reduce_variance_1/reduce_variance/sub", "unknown_27"], "attr": {"T": {"type": "DT_FLOAT"}, "keep_dims": {"b": true}, "Tidx": {"type": "DT_INT32"}}}, {"name": "StatefulPartitionedCall/model/tf.__operators__.add_1/AddV2", "op": "AddV2", "input": ["StatefulPartitionedCall/model/tf.math.reduce_variance_1/reduce_variance/Mean_1", "StatefulPartitionedCall/model/tf.__operators__.add_1/y"], "attr": {"T": {"type": "DT_FLOAT"}}}, {"name": "StatefulPartitionedCall/model/tf.math.sqrt_1/Sqrt", "op": "Rsqrt", "input": ["StatefulPartitionedCall/model/tf.__operators__.add_1/AddV2"], "attr": {"T": {"type": "DT_FLOAT"}}}, {"name": "StatefulPartitionedCall/model/tf.math.truediv_1/truediv", "op": "Mul", "input": ["unknown_29", "StatefulPartitionedCall/model/tf.math.sqrt_1/Sqrt"], "attr": {"_grappler_ArithmeticOptimizer_MinimizeBroadcasts": {"b": true}, "T": {"type": "DT_FLOAT"}}}, {"name": "StatefulPartitionedCall/model/tf.math.multiply_8/Mul", "op": "Mul", "input": ["StatefulPartitionedCall/model/tf.math.truediv_1/truediv", "StatefulPartitionedCall/model/tf.math.subtract_1/Sub"], "attr": {"_grappler_ArithmeticOptimizer_MinimizeBroadcasts": {"b": true}, "T": {"type": "DT_FLOAT"}}}, {"name": "StatefulPartitionedCall/model/tf.math.add_38/Add", "op": "AddV2", "input": ["StatefulPartitionedCall/model/tf.math.multiply_8/Mul", "StatefulPartitionedCall/model/tf.math.add_38/Add/y"], "attr": {"T": {"type": "DT_FLOAT"}}}, {"name": "StatefulPartitionedCall/model/tf.linalg.matmul_11/MatMul", "op": "BatchMatMulV2", "input": ["StatefulPartitionedCall/model/tf.math.add_38/Add", "StatefulPartitionedCall/model/tf.linalg.matmul_11/MatMul/b"], "attr": {"T": {"type": "DT_FLOAT"}, "adj_y": {"b": true}, "adj_x": {"b": false}}}, {"name": "StatefulPartitionedCall/model/tf.math.add_39/Add", "op": "AddV2", "input": ["StatefulPartitionedCall/model/tf.compat.v1.transpose_9/transpose", "StatefulPartitionedCall/model/tf.math.add_38/Add"], "attr": {"T": {"type": "DT_FLOAT"}}}, {"name": "StatefulPartitionedCall/model/tf.math.add_42/Add", "op": "AddV2", "input": ["StatefulPartitionedCall/model/tf.linalg.matmul_11/MatMul", "StatefulPartitionedCall/model/tf.math.add_42/Add/y"], "attr": {"T": {"type": "DT_FLOAT"}}}, {"name": "StatefulPartitionedCall/model/tf.linalg.matmul_8/MatMul", "op": "BatchMatMulV2", "input": ["StatefulPartitionedCall/model/tf.math.add_39/Add", "StatefulPartitionedCall/model/tf.linalg.matmul_8/MatMul/b"], "attr": {"adj_x": {"b": false}, "adj_y": {"b": true}, "T": {"type": "DT_FLOAT"}}}, {"name": "StatefulPartitionedCall/model/tf.linalg.matmul_9/MatMul", "op": "BatchMatMulV2", "input": ["StatefulPartitionedCall/model/tf.math.add_39/Add", "StatefulPartitionedCall/model/tf.linalg.matmul_9/MatMul/b"], "attr": {"adj_x": {"b": false}, "T": {"type": "DT_FLOAT"}, "adj_y": {"b": true}}}, {"name": "StatefulPartitionedCall/model/tf.reshape_19/Reshape", "op": "Reshape", "input": ["StatefulPartitionedCall/model/tf.math.add_42/Add", "StatefulPartitionedCall/model/tf.reshape_19/Reshape/shape"], "attr": {"T": {"type": "DT_FLOAT"}, "Tshape": {"type": "DT_INT32"}}}, {"name": "StatefulPartitionedCall/model/tf.math.add_40/Add", "op": "AddV2", "input": ["StatefulPartitionedCall/model/tf.linalg.matmul_8/MatMul", "StatefulPartitionedCall/model/tf.math.add_40/Add/y"], "attr": {"T": {"type": "DT_FLOAT"}}}, {"name": "StatefulPartitionedCall/model/tf.math.add_41/Add", "op": "AddV2", "input": ["StatefulPartitionedCall/model/tf.linalg.matmul_9/MatMul", "StatefulPartitionedCall/model/tf.math.add_41/Add/y"], "attr": {"T": {"type": "DT_FLOAT"}}}, {"name": "StatefulPartitionedCall/model/tf.compat.v1.transpose_16/transpose", "op": "Transpose", "input": ["StatefulPartitionedCall/model/tf.reshape_19/Reshape", "StatefulPartitionedCall/model/tf.compat.v1.transpose_16/transpose/perm"], "attr": {"Tperm": {"type": "DT_INT32"}, "T": {"type": "DT_FLOAT"}}}, {"name": "StatefulPartitionedCall/model/tf.math.multiply_9/Mul", "op": "Mul", "input": ["StatefulPartitionedCall/model/tf.math.add_40/Add", "StatefulPartitionedCall/model/tf.math.multiply_9/Mul/y"], "attr": {"T": {"type": "DT_FLOAT"}}}, {"name": "StatefulPartitionedCall/model/tf.reshape_14/Reshape", "op": "Reshape", "input": ["StatefulPartitionedCall/model/tf.math.add_41/Add", "StatefulPartitionedCall/model/tf.reshape_14/Reshape/shape"], "attr": {"Tshape": {"type": "DT_INT32"}, "T": {"type": "DT_FLOAT"}}}, {"name": "StatefulPartitionedCall/model/tf.reshape_13/Reshape", "op": "Reshape", "input": ["StatefulPartitionedCall/model/tf.math.multiply_9/Mul", "StatefulPartitionedCall/model/tf.reshape_13/Reshape/shape"], "attr": {"T": {"type": "DT_FLOAT"}, "Tshape": {"type": "DT_INT32"}}}, {"name": "StatefulPartitionedCall/model/tf.compat.v1.transpose_15/transpose", "op": "Transpose", "input": ["StatefulPartitionedCall/model/tf.reshape_14/Reshape", "StatefulPartitionedCall/model/tf.compat.v1.transpose_15/transpose/perm"], "attr": {"T": {"type": "DT_FLOAT"}, "Tperm": {"type": "DT_INT32"}}}, {"name": "StatefulPartitionedCall/model/tf.compat.v1.transpose_14/transpose", "op": "Transpose", "input": ["StatefulPartitionedCall/model/tf.reshape_13/Reshape", "StatefulPartitionedCall/model/tf.compat.v1.transpose_14/transpose/perm"], "attr": {"T": {"type": "DT_FLOAT"}, "Tperm": {"type": "DT_INT32"}}}, {"name": "StatefulPartitionedCall/model/tf.linalg.matmul_10/MatMul", "op": "BatchMatMulV2", "input": ["StatefulPartitionedCall/model/tf.compat.v1.transpose_14/transpose", "StatefulPartitionedCall/model/tf.compat.v1.transpose_15/transpose"], "attr": {"adj_x": {"b": false}, "T": {"type": "DT_FLOAT"}, "adj_y": {"b": false}}}, {"name": "StatefulPartitionedCall/model/tf.reshape_15/Reshape", "op": "Reshape", "input": ["StatefulPartitionedCall/model/tf.linalg.matmul_10/MatMul", "StatefulPartitionedCall/model/tf.reshape_15/Reshape/shape"], "attr": {"T": {"type": "DT_FLOAT"}, "Tshape": {"type": "DT_INT32"}}}, {"name": "StatefulPartitionedCall/model/tf.where_1/SelectV2", "op": "SelectV2", "input": ["StatefulPartitionedCall/model/tf.expand_dims_12/ExpandDims", "StatefulPartitionedCall/model/tf.where_1/SelectV2/t", "StatefulPartitionedCall/model/tf.reshape_15/Reshape"], "attr": {"T": {"type": "DT_FLOAT"}}}, {"name": "StatefulPartitionedCall/model/tf.reshape_17/Reshape", "op": "Reshape", "input": ["StatefulPartitionedCall/model/tf.where_1/SelectV2", "unknown_30"], "attr": {"Tshape": {"type": "DT_INT64"}, "T": {"type": "DT_FLOAT"}}}, {"name": "StatefulPartitionedCall/model/tf.nn.softmax_1/Softmax", "op": "Softmax", "input": ["StatefulPartitionedCall/model/tf.reshape_17/Reshape"], "attr": {"T": {"type": "DT_FLOAT"}}}, {"name": "StatefulPartitionedCall/model/tf.reshape_18/Reshape", "op": "Reshape", "input": ["StatefulPartitionedCall/model/tf.nn.softmax_1/Softmax", "unknown_31"], "attr": {"T": {"type": "DT_FLOAT"}, "Tshape": {"type": "DT_INT64"}}}, {"name": "StatefulPartitionedCall/model/tf.linalg.matmul_12/MatMul", "op": "BatchMatMulV2", "input": ["StatefulPartitionedCall/model/tf.reshape_18/Reshape", "StatefulPartitionedCall/model/tf.compat.v1.transpose_16/transpose"], "attr": {"T": {"type": "DT_FLOAT"}, "adj_y": {"b": false}, "adj_x": {"b": false}}}, {"name": "StatefulPartitionedCall/model/tf.reshape_42/Reshape", "op": "Reshape", "input": ["StatefulPartitionedCall/model/tf.reshape_18/Reshape", "StatefulPartitionedCall/model/tf.reshape_42/Reshape/shape"], "attr": {"T": {"type": "DT_FLOAT"}, "Tshape": {"type": "DT_INT32"}}}, {"name": "StatefulPartitionedCall/model/tf.compat.v1.transpose_17/transpose", "op": "Transpose", "input": ["StatefulPartitionedCall/model/tf.linalg.matmul_12/MatMul", "StatefulPartitionedCall/model/tf.compat.v1.transpose_17/transpose/perm"], "attr": {"T": {"type": "DT_FLOAT"}, "Tperm": {"type": "DT_INT32"}}}, {"name": "StatefulPartitionedCall/model/tf.math.reduce_sum/Sum", "op": "Sum", "input": ["StatefulPartitionedCall/model/tf.reshape_42/Reshape", "StatefulPartitionedCall/model/tf.math.reduce_sum/Sum/reduction_indices"], "attr": {"keep_dims": {"b": false}, "Tidx": {"type": "DT_INT32"}, "T": {"type": "DT_FLOAT"}}}, {"name": "StatefulPartitionedCall/model/tf.reshape_20/Reshape", "op": "Reshape", "input": ["StatefulPartitionedCall/model/tf.compat.v1.transpose_17/transpose", "StatefulPartitionedCall/model/tf.reshape_20/Reshape/shape"], "attr": {"Tshape": {"type": "DT_INT32"}, "T": {"type": "DT_FLOAT"}}}, {"name": "StatefulPartitionedCall/model/tf.math.multiply_22/Mul", "op": "Mul", "input": ["StatefulPartitionedCall/model/tf.math.reduce_sum/Sum", "StatefulPartitionedCall/model/tf.math.multiply_22/Mul/y"], "attr": {"T": {"type": "DT_FLOAT"}}}, {"name": "StatefulPartitionedCall/model/tf.linalg.matmul_13/MatMul", "op": "BatchMatMulV2", "input": ["StatefulPartitionedCall/model/tf.reshape_20/Reshape", "StatefulPartitionedCall/model/tf.linalg.matmul_13/MatMul/b"], "attr": {"T": {"type": "DT_FLOAT"}, "adj_y": {"b": true}, "adj_x": {"b": false}}}, {"name": "Identity_4", "op": "Identity", "input": ["StatefulPartitionedCall/model/tf.math.multiply_22/Mul"], "attr": {"T": {"type": "DT_FLOAT"}}}, {"name": "StatefulPartitionedCall/model/tf.math.add_44/ArithmeticOptimizer/AddOpsRewrite_Leaf_1_Add", "op": "AddN", "input": ["StatefulPartitionedCall/model/tf.math.add_38/Add", "StatefulPartitionedCall/model/tf.linalg.matmul_13/MatMul"], "attr": {"_grappler_ArithmeticOptimizer_AddOpsRewriteStage": {"b": true}, "T": {"type": "DT_FLOAT"}, "N": {"i": "2"}}}, {"name": "StatefulPartitionedCall/model/tf.math.add_44/ArithmeticOptimizer/AddOpsRewrite_Add", "op": "AddV2", "input": ["StatefulPartitionedCall/model/tf.math.add_43/Add/y", "StatefulPartitionedCall/model/tf.math.add_44/ArithmeticOptimizer/AddOpsRewrite_Leaf_1_Add"], "attr": {"T": {"type": "DT_FLOAT"}, "_grappler_ArithmeticOptimizer_AddOpsRewriteStage": {"b": true}}}, {"name": "StatefulPartitionedCall/model/tf.math.reduce_variance_2/reduce_variance/Mean", "op": "Mean", "input": ["StatefulPartitionedCall/model/tf.math.add_44/ArithmeticOptimizer/AddOpsRewrite_Add", "unknown_32"], "attr": {"T": {"type": "DT_FLOAT"}, "keep_dims": {"b": true}, "Tidx": {"type": "DT_INT32"}}}, {"name": "StatefulPartitionedCall/model/tf.math.reduce_mean_2/Mean", "op": "Mean", "input": ["StatefulPartitionedCall/model/tf.math.add_44/ArithmeticOptimizer/AddOpsRewrite_Add", "unknown_33"], "attr": {"keep_dims": {"b": true}, "Tidx": {"type": "DT_INT32"}, "T": {"type": "DT_FLOAT"}}}, {"name": "StatefulPartitionedCall/model/tf.math.reduce_variance_2/reduce_variance/sub", "op": "SquaredDifference", "input": ["StatefulPartitionedCall/model/tf.math.add_44/ArithmeticOptimizer/AddOpsRewrite_Add", "StatefulPartitionedCall/model/tf.math.reduce_variance_2/reduce_variance/Mean"], "attr": {"T": {"type": "DT_FLOAT"}}}, {"name": "StatefulPartitionedCall/model/tf.math.subtract_2/Sub", "op": "Sub", "input": ["StatefulPartitionedCall/model/tf.math.add_44/ArithmeticOptimizer/AddOpsRewrite_Add", "StatefulPartitionedCall/model/tf.math.reduce_mean_2/Mean"], "attr": {"T": {"type": "DT_FLOAT"}}}, {"name": "StatefulPartitionedCall/model/tf.math.reduce_variance_2/reduce_variance/Mean_1", "op": "Mean", "input": ["StatefulPartitionedCall/model/tf.math.reduce_variance_2/reduce_variance/sub", "unknown_32"], "attr": {"keep_dims": {"b": true}, "T": {"type": "DT_FLOAT"}, "Tidx": {"type": "DT_INT32"}}}, {"name": "StatefulPartitionedCall/model/tf.__operators__.add_2/AddV2", "op": "AddV2", "input": ["StatefulPartitionedCall/model/tf.math.reduce_variance_2/reduce_variance/Mean_1", "StatefulPartitionedCall/model/tf.__operators__.add_2/y"], "attr": {"T": {"type": "DT_FLOAT"}}}, {"name": "StatefulPartitionedCall/model/tf.math.sqrt_2/Sqrt", "op": "Rsqrt", "input": ["StatefulPartitionedCall/model/tf.__operators__.add_2/AddV2"], "attr": {"T": {"type": "DT_FLOAT"}}}, {"name": "StatefulPartitionedCall/model/tf.math.truediv_2/truediv", "op": "Mul", "input": ["unknown_34", "StatefulPartitionedCall/model/tf.math.sqrt_2/Sqrt"], "attr": {"T": {"type": "DT_FLOAT"}, "_grappler_ArithmeticOptimizer_MinimizeBroadcasts": {"b": true}}}, {"name": "StatefulPartitionedCall/model/tf.math.multiply_10/Mul", "op": "Mul", "input": ["StatefulPartitionedCall/model/tf.math.truediv_2/truediv", "StatefulPartitionedCall/model/tf.math.subtract_2/Sub"], "attr": {"_grappler_ArithmeticOptimizer_MinimizeBroadcasts": {"b": true}, "T": {"type": "DT_FLOAT"}}}, {"name": "StatefulPartitionedCall/model/tf.math.add_45/Add", "op": "AddV2", "input": ["StatefulPartitionedCall/model/tf.math.multiply_10/Mul", "StatefulPartitionedCall/model/tf.math.add_45/Add/y"], "attr": {"T": {"type": "DT_FLOAT"}}}, {"name": "StatefulPartitionedCall/model/tf.linalg.matmul_14/MatMul", "op": "BatchMatMulV2", "input": ["StatefulPartitionedCall/model/tf.math.add_45/Add", "StatefulPartitionedCall/model/tf.linalg.matmul_14/MatMul/b"], "attr": {"T": {"type": "DT_FLOAT"}, "adj_y": {"b": true}, "adj_x": {"b": false}}}, {"name": "StatefulPartitionedCall/model/tf.math.add_46/Add", "op": "AddV2", "input": ["StatefulPartitionedCall/model/tf.linalg.matmul_14/MatMul", "StatefulPartitionedCall/model/tf.math.add_46/Add/y"], "attr": {"T": {"type": "DT_FLOAT"}}}, {"name": "StatefulPartitionedCall/model/tf.nn.relu_16/Relu", "op": "Relu", "input": ["StatefulPartitionedCall/model/tf.math.add_46/Add"], "attr": {"T": {"type": "DT_FLOAT"}}}, {"name": "StatefulPartitionedCall/model/tf.linalg.matmul_15/MatMul", "op": "BatchMatMulV2", "input": ["StatefulPartitionedCall/model/tf.nn.relu_16/Relu", "StatefulPartitionedCall/model/tf.linalg.matmul_15/MatMul/b"], "attr": {"adj_y": {"b": true}, "T": {"type": "DT_FLOAT"}, "adj_x": {"b": false}}}, {"name": "StatefulPartitionedCall/model/tf.math.add_48/ArithmeticOptimizer/AddOpsRewrite_Leaf_1_Add", "op": "AddN", "input": ["StatefulPartitionedCall/model/tf.math.add_45/Add", "StatefulPartitionedCall/model/tf.linalg.matmul_15/MatMul"], "attr": {"_grappler_ArithmeticOptimizer_AddOpsRewriteStage": {"b": true}, "N": {"i": "2"}, "T": {"type": "DT_FLOAT"}}}, {"name": "StatefulPartitionedCall/model/tf.math.add_48/ArithmeticOptimizer/AddOpsRewrite_Add", "op": "AddV2", "input": ["StatefulPartitionedCall/model/tf.math.add_47/Add/y", "StatefulPartitionedCall/model/tf.math.add_48/ArithmeticOptimizer/AddOpsRewrite_Leaf_1_Add"], "attr": {"_grappler_ArithmeticOptimizer_AddOpsRewriteStage": {"b": true}, "T": {"type": "DT_FLOAT"}}}, {"name": "StatefulPartitionedCall/model/tf.math.reduce_variance_3/reduce_variance/Mean", "op": "Mean", "input": ["StatefulPartitionedCall/model/tf.math.add_48/ArithmeticOptimizer/AddOpsRewrite_Add", "unknown_35"], "attr": {"Tidx": {"type": "DT_INT32"}, "keep_dims": {"b": true}, "T": {"type": "DT_FLOAT"}}}, {"name": "StatefulPartitionedCall/model/tf.math.reduce_mean_3/Mean", "op": "Mean", "input": ["StatefulPartitionedCall/model/tf.math.add_48/ArithmeticOptimizer/AddOpsRewrite_Add", "unknown_36"], "attr": {"keep_dims": {"b": true}, "T": {"type": "DT_FLOAT"}, "Tidx": {"type": "DT_INT32"}}}, {"name": "StatefulPartitionedCall/model/tf.math.reduce_variance_3/reduce_variance/sub", "op": "SquaredDifference", "input": ["StatefulPartitionedCall/model/tf.math.add_48/ArithmeticOptimizer/AddOpsRewrite_Add", "StatefulPartitionedCall/model/tf.math.reduce_variance_3/reduce_variance/Mean"], "attr": {"T": {"type": "DT_FLOAT"}}}, {"name": "StatefulPartitionedCall/model/tf.math.subtract_3/Sub", "op": "Sub", "input": ["StatefulPartitionedCall/model/tf.math.add_48/ArithmeticOptimizer/AddOpsRewrite_Add", "StatefulPartitionedCall/model/tf.math.reduce_mean_3/Mean"], "attr": {"T": {"type": "DT_FLOAT"}}}, {"name": "StatefulPartitionedCall/model/tf.math.reduce_variance_3/reduce_variance/Mean_1", "op": "Mean", "input": ["StatefulPartitionedCall/model/tf.math.reduce_variance_3/reduce_variance/sub", "unknown_35"], "attr": {"T": {"type": "DT_FLOAT"}, "keep_dims": {"b": true}, "Tidx": {"type": "DT_INT32"}}}, {"name": "StatefulPartitionedCall/model/tf.__operators__.add_3/AddV2", "op": "AddV2", "input": ["StatefulPartitionedCall/model/tf.math.reduce_variance_3/reduce_variance/Mean_1", "StatefulPartitionedCall/model/tf.__operators__.add_3/y"], "attr": {"T": {"type": "DT_FLOAT"}}}, {"name": "StatefulPartitionedCall/model/tf.math.sqrt_3/Sqrt", "op": "Rsqrt", "input": ["StatefulPartitionedCall/model/tf.__operators__.add_3/AddV2"], "attr": {"T": {"type": "DT_FLOAT"}}}, {"name": "StatefulPartitionedCall/model/tf.math.truediv_3/truediv", "op": "Mul", "input": ["unknown_37", "StatefulPartitionedCall/model/tf.math.sqrt_3/Sqrt"], "attr": {"T": {"type": "DT_FLOAT"}, "_grappler_ArithmeticOptimizer_MinimizeBroadcasts": {"b": true}}}, {"name": "StatefulPartitionedCall/model/tf.math.multiply_11/Mul", "op": "Mul", "input": ["StatefulPartitionedCall/model/tf.math.truediv_3/truediv", "StatefulPartitionedCall/model/tf.math.subtract_3/Sub"], "attr": {"T": {"type": "DT_FLOAT"}, "_grappler_ArithmeticOptimizer_MinimizeBroadcasts": {"b": true}}}, {"name": "StatefulPartitionedCall/model/tf.math.add_49/Add", "op": "AddV2", "input": ["StatefulPartitionedCall/model/tf.math.multiply_11/Mul", "StatefulPartitionedCall/model/tf.math.add_49/Add/y"], "attr": {"T": {"type": "DT_FLOAT"}}}, {"name": "StatefulPartitionedCall/model/tf.math.add_50/Add", "op": "AddV2", "input": ["StatefulPartitionedCall/model/tf.compat.v1.transpose_9/transpose", "StatefulPartitionedCall/model/tf.math.add_49/Add"], "attr": {"T": {"type": "DT_FLOAT"}}}, {"name": "StatefulPartitionedCall/model/tf.linalg.matmul_18/MatMul", "op": "BatchMatMulV2", "input": ["StatefulPartitionedCall/model/tf.math.add_49/Add", "StatefulPartitionedCall/model/tf.linalg.matmul_18/MatMul/b"], "attr": {"T": {"type": "DT_FLOAT"}, "adj_y": {"b": true}, "adj_x": {"b": false}}}, {"name": "StatefulPartitionedCall/model/tf.math.add_70/Add", "op": "AddV2", "input": ["StatefulPartitionedCall/model/tf.compat.v1.transpose_9/transpose", "StatefulPartitionedCall/model/tf.math.add_49/Add"], "attr": {"T": {"type": "DT_FLOAT"}}}, {"name": "StatefulPartitionedCall/model/tf.linalg.matmul_32/MatMul", "op": "BatchMatMulV2", "input": ["StatefulPartitionedCall/model/tf.math.add_49/Add", "StatefulPartitionedCall/model/tf.linalg.matmul_32/MatMul/b"], "attr": {"adj_x": {"b": false}, "adj_y": {"b": true}, "T": {"type": "DT_FLOAT"}}}, {"name": "StatefulPartitionedCall/model/tf.linalg.matmul_16/MatMul", "op": "BatchMatMulV2", "input": ["StatefulPartitionedCall/model/tf.math.add_50/Add", "StatefulPartitionedCall/model/tf.linalg.matmul_16/MatMul/b"], "attr": {"T": {"type": "DT_FLOAT"}, "adj_y": {"b": true}, "adj_x": {"b": false}}}, {"name": "StatefulPartitionedCall/model/tf.math.add_52/Add", "op": "AddV2", "input": ["StatefulPartitionedCall/model/tf.linalg.matmul_18/MatMul", "StatefulPartitionedCall/model/tf.math.add_52/Add/y"], "attr": {"T": {"type": "DT_FLOAT"}}}, {"name": "StatefulPartitionedCall/model/tf.linalg.matmul_30/MatMul", "op": "BatchMatMulV2", "input": ["StatefulPartitionedCall/model/tf.math.add_70/Add", "StatefulPartitionedCall/model/tf.linalg.matmul_30/MatMul/b"], "attr": {"adj_x": {"b": false}, "T": {"type": "DT_FLOAT"}, "adj_y": {"b": true}}}, {"name": "StatefulPartitionedCall/model/tf.math.add_72/Add", "op": "AddV2", "input": ["StatefulPartitionedCall/model/tf.linalg.matmul_32/MatMul", "StatefulPartitionedCall/model/tf.math.add_72/Add/y"], "attr": {"T": {"type": "DT_FLOAT"}}}, {"name": "StatefulPartitionedCall/model/tf.math.add_51/Add", "op": "AddV2", "input": ["StatefulPartitionedCall/model/tf.linalg.matmul_16/MatMul", "StatefulPartitionedCall/model/tf.math.add_51/Add/y"], "attr": {"T": {"type": "DT_FLOAT"}}}, {"name": "StatefulPartitionedCall/model/tf.reshape_26/Reshape", "op": "Reshape", "input": ["StatefulPartitionedCall/model/tf.math.add_52/Add", "StatefulPartitionedCall/model/tf.reshape_26/Reshape/shape"], "attr": {"T": {"type": "DT_FLOAT"}, "Tshape": {"type": "DT_INT32"}}}, {"name": "StatefulPartitionedCall/model/tf.math.add_71/Add", "op": "AddV2", "input": ["StatefulPartitionedCall/model/tf.linalg.matmul_30/MatMul", "StatefulPartitionedCall/model/tf.math.add_71/Add/y"], "attr": {"T": {"type": "DT_FLOAT"}}}, {"name": "StatefulPartitionedCall/model/tf.reshape_40/Reshape", "op": "Reshape", "input": ["StatefulPartitionedCall/model/tf.math.add_72/Add", "StatefulPartitionedCall/model/tf.reshape_40/Reshape/shape"], "attr": {"T": {"type": "DT_FLOAT"}, "Tshape": {"type": "DT_INT32"}}}, {"name": "StatefulPartitionedCall/model/tf.reshape_21/Reshape", "op": "Reshape", "input": ["StatefulPartitionedCall/model/tf.math.add_51/Add", "StatefulPartitionedCall/model/tf.reshape_21/Reshape/shape"], "attr": {"Tshape": {"type": "DT_INT32"}, "T": {"type": "DT_FLOAT"}}}, {"name": "StatefulPartitionedCall/model/tf.compat.v1.transpose_19/transpose", "op": "Transpose", "input": ["StatefulPartitionedCall/model/tf.reshape_26/Reshape", "StatefulPartitionedCall/model/tf.compat.v1.transpose_19/transpose/perm"], "attr": {"Tperm": {"type": "DT_INT32"}, "T": {"type": "DT_FLOAT"}}}, {"name": "StatefulPartitionedCall/model/tf.reshape_35/Reshape", "op": "Reshape", "input": ["StatefulPartitionedCall/model/tf.math.add_71/Add", "StatefulPartitionedCall/model/tf.reshape_35/Reshape/shape"], "attr": {"Tshape": {"type": "DT_INT32"}, "T": {"type": "DT_FLOAT"}}}, {"name": "StatefulPartitionedCall/model/tf.compat.v1.transpose_27/transpose", "op": "Transpose", "input": ["StatefulPartitionedCall/model/tf.reshape_40/Reshape", "StatefulPartitionedCall/model/tf.compat.v1.transpose_27/transpose/perm"], "attr": {"Tperm": {"type": "DT_INT32"}, "T": {"type": "DT_FLOAT"}}}, {"name": "StatefulPartitionedCall/model/tf.compat.v1.transpose_18/transpose", "op": "Transpose", "input": ["StatefulPartitionedCall/model/tf.reshape_21/Reshape", "StatefulPartitionedCall/model/tf.compat.v1.transpose_18/transpose/perm"], "attr": {"T": {"type": "DT_FLOAT"}, "Tperm": {"type": "DT_INT32"}}}, {"name": "StatefulPartitionedCall/model/tf.compat.v1.transpose_26/transpose", "op": "Transpose", "input": ["StatefulPartitionedCall/model/tf.reshape_35/Reshape", "StatefulPartitionedCall/model/tf.compat.v1.transpose_26/transpose/perm"], "attr": {"T": {"type": "DT_FLOAT"}, "Tperm": {"type": "DT_INT32"}}}, {"name": "StatefulPartitionedCall/model/tf.linalg.matmul_17/MatMul", "op": "BatchMatMulV2", "input": ["unknown_38", "StatefulPartitionedCall/model/tf.compat.v1.transpose_18/transpose"], "attr": {"adj_y": {"b": false}, "T": {"type": "DT_FLOAT"}, "adj_x": {"b": false}}}, {"name": "StatefulPartitionedCall/model/tf.reshape_22/Reshape", "op": "Reshape", "input": ["StatefulPartitionedCall/model/tf.linalg.matmul_17/MatMul", "StatefulPartitionedCall/model/tf.reshape_22/Reshape/shape"], "attr": {"T": {"type": "DT_FLOAT"}, "Tshape": {"type": "DT_INT32"}}}, {"name": "StatefulPartitionedCall/model/tf.where_2/SelectV2", "op": "SelectV2", "input": ["StatefulPartitionedCall/model/tf.expand_dims_2/ExpandDims", "StatefulPartitionedCall/model/tf.where_2/SelectV2/t", "StatefulPartitionedCall/model/tf.reshape_22/Reshape"], "attr": {"T": {"type": "DT_FLOAT"}}}, {"name": "StatefulPartitionedCall/model/tf.reshape_24/Reshape", "op": "Reshape", "input": ["StatefulPartitionedCall/model/tf.where_2/SelectV2", "unknown_39"], "attr": {"T": {"type": "DT_FLOAT"}, "Tshape": {"type": "DT_INT64"}}}, {"name": "StatefulPartitionedCall/model/tf.nn.softmax_2/Softmax", "op": "Softmax", "input": ["StatefulPartitionedCall/model/tf.reshape_24/Reshape"], "attr": {"T": {"type": "DT_FLOAT"}}}, {"name": "StatefulPartitionedCall/model/tf.reshape_25/Reshape", "op": "Reshape", "input": ["StatefulPartitionedCall/model/tf.nn.softmax_2/Softmax", "unknown_40"], "…
 ["StatefulPartitionedCall/model/tf.math.add_77/Add/y", "StatefulPartitionedCall/model/tf.math.add_78/ArithmeticOptimizer/AddOpsRewrite_Leaf_1_Add"], "attr": {"_grappler_ArithmeticOptimizer_AddOpsRewriteStage": {"b": true}, "T": {"type": "DT_FLOAT"}}}, {"name": "StatefulPartitionedCall/model/tf.math.reduce_variance_9/reduce_variance/Mean", "op": "Mean", "input": ["StatefulPartitionedCall/model/tf.math.add_78/ArithmeticOptimizer/AddOpsRewrite_Add", "unknown_58"], "attr": {"T": {"type": "DT_FLOAT"}, "Tidx": {"type": "DT_INT32"}, "keep_dims": {"b": true}}}, {"name": "StatefulPartitionedCall/model/tf.math.reduce_mean_9/Mean", "op": "Mean", "input": ["StatefulPartitionedCall/model/tf.math.add_78/ArithmeticOptimizer/AddOpsRewrite_Add", "unknown_59"], "attr": {"Tidx": {"type": "DT_INT32"}, "T": {"type": "DT_FLOAT"}, "keep_dims": {"b": true}}}, {"name": "StatefulPartitionedCall/model/tf.math.reduce_variance_9/reduce_variance/sub", "op": "SquaredDifference", "input": ["StatefulPartitionedCall/model/tf.math.add_78/ArithmeticOptimizer/AddOpsRewrite_Add", "StatefulPartitionedCall/model/tf.math.reduce_variance_9/reduce_variance/Mean"], "attr": {"T": {"type": "DT_FLOAT"}}}, {"name": "StatefulPartitionedCall/model/tf.math.subtract_9/Sub", "op": "Sub", "input": ["StatefulPartitionedCall/model/tf.math.add_78/ArithmeticOptimizer/AddOpsRewrite_Add", "StatefulPartitionedCall/model/tf.math.reduce_mean_9/Mean"], "attr": {"T": {"type": "DT_FLOAT"}}}, {"name": "StatefulPartitionedCall/model/tf.math.reduce_variance_9/reduce_variance/Mean_1", "op": "Mean", "input": ["StatefulPartitionedCall/model/tf.math.reduce_variance_9/reduce_variance/sub", "unknown_58"], "attr": {"keep_dims": {"b": true}, "T": {"type": "DT_FLOAT"}, "Tidx": {"type": "DT_INT32"}}}, {"name": "StatefulPartitionedCall/model/tf.__operators__.add_9/AddV2", "op": "AddV2", "input": ["StatefulPartitionedCall/model/tf.math.reduce_variance_9/reduce_variance/Mean_1", "StatefulPartitionedCall/model/tf.__operators__.add_9/y"], "attr": {"T": {"type": "DT_FLOAT"}}}, {"name": "StatefulPartitionedCall/model/tf.math.sqrt_9/Sqrt", "op": "Rsqrt", "input": ["StatefulPartitionedCall/model/tf.__operators__.add_9/AddV2"], "attr": {"T": {"type": "DT_FLOAT"}}}, {"name": "StatefulPartitionedCall/model/tf.math.truediv_9/truediv", "op": "Mul", "input": ["StatefulPartitionedCall/model/tf.math.sqrt_9/Sqrt", "unknown_60"], "attr": {"T": {"type": "DT_FLOAT"}, "_grappler_ArithmeticOptimizer_MinimizeBroadcasts": {"b": true}}}, {"name": "StatefulPartitionedCall/model/tf.math.multiply_19/Mul", "op": "Mul", "input": ["StatefulPartitionedCall/model/tf.math.truediv_9/truediv", "StatefulPartitionedCall/model/tf.math.subtract_9/Sub"], "attr": {"T": {"type": "DT_FLOAT"}, "_grappler_ArithmeticOptimizer_MinimizeBroadcasts": {"b": true}}}, {"name": "StatefulPartitionedCall/model/tf.math.add_79/Add", "op": "AddV2", "input": ["StatefulPartitionedCall/model/tf.math.multiply_19/Mul", "StatefulPartitionedCall/model/tf.math.add_79/Add/y"], "attr": {"T": {"type": "DT_FLOAT"}}}, {"name": "StatefulPartitionedCall/model/tf.math.reduce_variance_10/reduce_variance/Mean", "op": "Mean", "input": ["StatefulPartitionedCall/model/tf.math.add_79/Add", "unknown_61"], "attr": {"keep_dims": {"b": true}, "T": {"type": "DT_FLOAT"}, "Tidx": {"type": "DT_INT32"}}}, {"name": "StatefulPartitionedCall/model/tf.math.reduce_mean_10/Mean", "op": "Mean", "input": ["StatefulPartitionedCall/model/tf.math.add_79/Add", "unknown_63"], "attr": {"Tidx": {"type": "DT_INT32"}, "keep_dims": {"b": true}, "T": {"type": "DT_FLOAT"}}}, {"name": "StatefulPartitionedCall/model/tf.math.reduce_variance_10/reduce_variance/sub", "op": "SquaredDifference", "input": ["StatefulPartitionedCall/model/tf.math.add_79/Add", "StatefulPartitionedCall/model/tf.math.reduce_variance_10/reduce_variance/Mean"], "attr": {"T": {"type": "DT_FLOAT"}}}, {"name": "StatefulPartitionedCall/model/tf.math.subtract_10/Sub", "op": "Sub", "input": ["StatefulPartitionedCall/model/tf.math.add_79/Add", "StatefulPartitionedCall/model/tf.math.reduce_mean_10/Mean"], "attr": {"T": {"type": "DT_FLOAT"}}}, {"name": "StatefulPartitionedCall/model/tf.math.reduce_variance_10/reduce_variance/Mean_1", "op": "Mean", "input": ["StatefulPartitionedCall/model/tf.math.reduce_variance_10/reduce_variance/sub", "unknown_61"], "attr": {"T": {"type": "DT_FLOAT"}, "keep_dims": {"b": true}, "Tidx": {"type": "DT_INT32"}}}, {"name": "StatefulPartitionedCall/model/tf.__operators__.add_10/AddV2", "op": "AddV2", "input": ["StatefulPartitionedCall/model/tf.math.reduce_variance_10/reduce_variance/Mean_1", "StatefulPartitionedCall/model/tf.__operators__.add_10/y"], "attr": {"T": {"type": "DT_FLOAT"}}}, {"name": "StatefulPartitionedCall/model/tf.math.sqrt_10/Sqrt", "op": "Rsqrt", "input": ["StatefulPartitionedCall/model/tf.__operators__.add_10/AddV2"], "attr": {"T": {"type": "DT_FLOAT"}}}, {"name": "StatefulPartitionedCall/model/tf.math.truediv_10/truediv", "op": "Mul", "input": ["StatefulPartitionedCall/model/tf.math.sqrt_10/Sqrt", "unknown_65"], "attr": {"T": {"type": "DT_FLOAT"}, "_grappler_ArithmeticOptimizer_MinimizeBroadcasts": {"b": true}}}, {"name": "StatefulPartitionedCall/model/tf.math.multiply_20/Mul", "op": "Mul", "input": ["StatefulPartitionedCall/model/tf.math.truediv_10/truediv", "StatefulPartitionedCall/model/tf.math.subtract_10/Sub"], "attr": {"T": {"type": "DT_FLOAT"}, "_grappler_ArithmeticOptimizer_MinimizeBroadcasts": {"b": true}}}, {"name": "StatefulPartitionedCall/model/tf.math.add_80/Add", "op": "AddV2", "input": ["StatefulPartitionedCall/model/tf.math.multiply_20/Mul", "StatefulPartitionedCall/model/tf.math.add_80/Add/y"], "attr": {"T": {"type": "DT_FLOAT"}}}, {"name": "StatefulPartitionedCall/model/tf.expand_dims_16/ExpandDims", "op": "ExpandDims", "input": ["StatefulPartitionedCall/model/tf.math.add_80/Add", "StatefulPartitionedCall/model/tf.expand_dims_16/ExpandDims/dim"], "attr": {"Tdim": {"type": "DT_INT64"}, "T": {"type": "DT_FLOAT"}}}, {"name": "StatefulPartitionedCall/model/tf.concat_3/concat", "op": "ConcatV2", "input": ["StatefulPartitionedCall/model/tf.expand_dims_13/ExpandDims", "StatefulPartitionedCall/model/tf.expand_dims_16/ExpandDims", "StatefulPartitionedCall/model/tf.concat_3/concat/axis"], "attr": {"Tidx": {"type": "DT_INT32"}, "N": {"i": "2"}, "T": {"type": "DT_FLOAT"}}}, {"name": "StatefulPartitionedCall/model/tf.compat.v1.transpose_29/transpose", "op": "Transpose", "input": ["StatefulPartitionedCall/model/tf.concat_3/concat", "StatefulPartitionedCall/model/tf.compat.v1.transpose_29/transpose/perm"], "attr": {"Tperm": {"type": "DT_INT32"}, "T": {"type": "DT_FLOAT"}}}, {"name": "StatefulPartitionedCall/model/tf.linalg.matmul_40/MatMul", "op": "BatchMatMulV2", "input": ["StatefulPartitionedCall/model/tf.compat.v1.transpose_29/transpose", "StatefulPartitionedCall/model/tf.linalg.matmul_40/MatMul/b"], "attr": {"T": {"type": "DT_FLOAT"}, "adj_x": {"b": false}, "adj_y": {"b": true}}}, {"name": "StatefulPartitionedCall/model/tf.linalg.matmul_37/MatMul", "op": "BatchMatMulV2", "input": ["StatefulPartitionedCall/model/tf.compat.v1.transpose_29/transpose", "StatefulPartitionedCall/model/tf.linalg.matmul_37/MatMul/b"], "attr": {"adj_x": {"b": false}, "adj_y": {"b": true}, "T": {"type": "DT_FLOAT"}}}, {"name": "StatefulPartitionedCall/model/tf.linalg.matmul_43/MatMul", "op": "BatchMatMulV2", "input": ["StatefulPartitionedCall/model/tf.compat.v1.transpose_29/transpose", "StatefulPartitionedCall/model/tf.linalg.matmul_43/MatMul/b"], "attr": {"T": {"type": "DT_FLOAT"}, "adj_x": {"b": false}, "adj_y": {"b": true}}}, {"name": "StatefulPartitionedCall/model/tf.math.add_84/Add", "op": "AddV2", "input": ["StatefulPartitionedCall/model/tf.linalg.matmul_40/MatMul", "StatefulPartitionedCall/model/tf.math.add_84/Add/y"], "attr": {"T": {"type": "DT_FLOAT"}}}, {"name": "StatefulPartitionedCall/model/tf.math.add_81/Add", "op": "AddV2", "input": ["StatefulPartitionedCall/model/tf.linalg.matmul_37/MatMul", "StatefulPartitionedCall/model/tf.math.add_81/Add/y"], "attr": {"T": {"type": "DT_FLOAT"}}}, {"name": "StatefulPartitionedCall/model/tf.math.add_87/Add", "op": "AddV2", "input": ["StatefulPartitionedCall/model/tf.linalg.matmul_43/MatMul", "StatefulPartitionedCall/model/tf.math.add_87/Add/y"], "attr": {"T": {"type": "DT_FLOAT"}}}, {"name": "StatefulPartitionedCall/model/tf.nn.relu_21/Relu", "op": "Relu", "input": ["StatefulPartitionedCall/model/tf.math.add_84/Add"], "attr": {"T": {"type": "DT_FLOAT"}}}, {"name": "StatefulPartitionedCall/model/tf.nn.relu_19/Relu", "op": "Relu", "input": ["StatefulPartitionedCall/model/tf.math.add_81/Add"], "attr": {"T": {"type": "DT_FLOAT"}}}, {"name": "StatefulPartitionedCall/model/tf.strided_slice_7/StridedSlice", "op": "StridedSlice", "input": ["StatefulPartitionedCall/model/tf.math.add_87/Add", "StatefulPartitionedCall/model/tf.strided_slice_7/StridedSlice/begin", "StatefulPartitionedCall/model/tf.strided_slice_7/StridedSlice/end", "StatefulPartitionedCall/model/tf.strided_slice_7/StridedSlice/strides"], "attr": {"ellipsis_mask": {"i": "0"}, "T": {"type": "DT_FLOAT"}, "Index": {"type": "DT_INT64"}, "shrink_axis_mask": {"i": "0"}, "new_axis_mask": {"i": "0"}, "end_mask": {"i": "0"}, "begin_mask": {"i": "0"}}}, {"name": "StatefulPartitionedCall/model/tf.compat.v1.gather_3/GatherV2", "op": "GatherV2", "input": ["StatefulPartitionedCall/model/tf.math.add_87/Add", "StatefulPartitionedCall/model/tf.compat.v1.gather_3/GatherV2/indices", "StatefulPartitionedCall/model/tf.compat.v1.gather_3/GatherV2/axis"], "attr": {"batch_dims": {"i": "0"}, "Tindices": {"type": "DT_INT32"}, "Taxis": {"type": "DT_INT32"}, "Tparams": {"type": "DT_FLOAT"}}}, {"name": "StatefulPartitionedCall/model/tf.linalg.matmul_41/MatMul", "op": "BatchMatMulV2", "input": ["StatefulPartitionedCall/model/tf.nn.relu_21/Relu", "StatefulPartitionedCall/model/tf.linalg.matmul_41/MatMul/b"], "attr": {"adj_y": {"b": true}, "T": {"type": "DT_FLOAT"}, "adj_x": {"b": false}}}, {"name": "StatefulPartitionedCall/model/tf.linalg.matmul_38/MatMul", "op": "BatchMatMulV2", "input": ["StatefulPartitionedCall/model/tf.nn.relu_19/Relu", "StatefulPartitionedCall/model/tf.linalg.matmul_38/MatMul/b"], "attr": {"adj_x": {"b": false}, "T": {"type": "DT_FLOAT"}, "adj_y": {"b": true}}}, {"name": "StatefulPartitionedCall/model/tf.compat.v1.squeeze_3/Squeeze", "op": "Squeeze", "input": ["StatefulPartitionedCall/model/tf.strided_slice_7/StridedSlice"], "attr": {"T": {"type": "DT_FLOAT"}, "squeeze_dims": {"list": {"i": ["0"]}}}}, {"name": "StatefulPartitionedCall/model/tf.__operators__.getitem_1/strided_slice", "op": "StridedSlice", "input": ["StatefulPartitionedCall/model/tf.compat.v1.gather_3/GatherV2", "StatefulPartitionedCall/model/tf.__operators__.getitem_1/strided_slice/stack", "StatefulPartitionedCall/model/tf.__operators__.getitem_1/strided_slice/stack_1", "StatefulPartitionedCall/model/tf.__operators__.getitem_1/strided_slice/stack_2"], "attr": {"begin_mask": {"i": "0"}, "T": {"type": "DT_FLOAT"}, "end_mask": {"i": "0"}, "Index": {"type": "DT_INT32"}, "shrink_axis_mask": {"i": "1"}, "ellipsis_mask": {"i": "0"}, "new_axis_mask": {"i": "0"}}}, {"name": "StatefulPartitionedCall/model/tf.math.add_85/Add", "op": "AddV2", "input": ["StatefulPartitionedCall/model/tf.linalg.matmul_41/MatMul", "StatefulPartitionedCall/model/tf.math.add_85/Add/y"], "attr": {"T": {"type": "DT_FLOAT"}}}, {"name": "StatefulPartitionedCall/model/tf.math.add_82/Add", "op": "AddV2", "input": ["StatefulPartitionedCall/model/tf.linalg.matmul_38/MatMul", "StatefulPartitionedCall/model/tf.math.add_82/Add/y"], "attr": {"T": {"type": "DT_FLOAT"}}}, {"name": "Identity_1", "op": "Identity", "input": ["StatefulPartitionedCall/model/tf.compat.v1.squeeze_3/Squeeze"], "attr": {"T": {"type": "DT_FLOAT"}}}, {"name": "Identity_3", "op": "Identity", "input": ["StatefulPartitionedCall/model/tf.__operators__.getitem_1/strided_slice"], "attr": {"T": {"type": "DT_FLOAT"}}}, {"name": "StatefulPartitionedCall/model/tf.nn.relu_22/Relu", "op": "Relu", "input": ["StatefulPartitionedCall/model/tf.math.add_85/Add"], "attr": {"T": {"type": "DT_FLOAT"}}}, {"name": "StatefulPartitionedCall/model/tf.nn.relu_20/Relu", "op": "Relu", "input": ["StatefulPartitionedCall/model/tf.math.add_82/Add"], "attr": {"T": {"type": "DT_FLOAT"}}}, {"name": "StatefulPartitionedCall/model/tf.linalg.matmul_42/MatMul", "op": "BatchMatMulV2", "input": ["StatefulPartitionedCall/model/tf.nn.relu_22/Relu", "StatefulPartitionedCall/model/tf.linalg.matmul_42/MatMul/b"], "attr": {"adj_y": {"b": true}, "adj_x": {"b": false}, "T": {"type": "DT_FLOAT"}}}, {"name": "StatefulPartitionedCall/model/tf.linalg.matmul_39/MatMul", "op": "BatchMatMulV2", "input": ["StatefulPartitionedCall/model/tf.nn.relu_20/Relu", "StatefulPartitionedCall/model/tf.linalg.matmul_39/MatMul/b"], "attr": {"adj_x": {"b": false}, "T": {"type": "DT_FLOAT"}, "adj_y": {"b": true}}}, {"name": "StatefulPartitionedCall/model/tf.math.add_86/Add", "op": "AddV2", "input": ["StatefulPartitionedCall/model/tf.linalg.matmul_42/MatMul", "StatefulPartitionedCall/model/tf.math.add_86/Add/y"], "attr": {"T": {"type": "DT_FLOAT"}}}, {"name": "StatefulPartitionedCall/model/tf.math.add_83/Add", "op": "AddV2", "input": ["StatefulPartitionedCall/model/tf.linalg.matmul_39/MatMul", "StatefulPartitionedCall/model/tf.math.add_83/Add/y"], "attr": {"T": {"type": "DT_FLOAT"}}}, {"name": "StatefulPartitionedCall/model/tf.math.reduce_mean_11/Mean", "op": "Mean", "input": ["StatefulPartitionedCall/model/tf.math.add_86/Add", "StatefulPartitionedCall/model/tf.math.reduce_mean_11/Mean/reduction_indices"], "attr": {"Tidx": {"type": "DT_INT32"}, "T": {"type": "DT_FLOAT"}, "keep_dims": {"b": true}}}, {"name": "StatefulPartitionedCall/model/lambda/Split", "op": "Split", "input": ["StatefulPartitionedCall/model/lambda/Split/split_dim", "StatefulPartitionedCall/model/tf.math.add_83/Add"], "attr": {"num_split": {"i": "2"}, "T": {"type": "DT_FLOAT"}}}, {"name": "StatefulPartitionedCall/model/tf.tile/Tile", "op": "Tile", "input": ["StatefulPartitionedCall/model/tf.math.reduce_mean_11/Mean", "StatefulPartitionedCall/model/tf.tile/Tile/multiples"], "attr": {"Tmultiples": {"type": "DT_INT64"}, "T": {"type": "DT_FLOAT"}}}, {"name": "StatefulPartitionedCall/model/tf.concat_4/concat", "op": "ConcatV2", "input": ["StatefulPartitionedCall/model/lambda/Split", "StatefulPartitionedCall/model/tf.tile/Tile", "StatefulPartitionedCall/model/lambda/Split:1", "StatefulPartitionedCall/model/tf.concat_4/concat/axis"], "attr": {"Tidx": {"type": "DT_INT32"}, "N": {"i": "3"}, "T": {"type": "DT_FLOAT"}}}, {"name": "StatefulPartitionedCall/model/tf.strided_slice_6/StridedSlice", "op": "StridedSlice", "input": ["StatefulPartitionedCall/model/tf.concat_4/concat", "StatefulPartitionedCall/model/tf.strided_slice_6/StridedSlice/begin", "StatefulPartitionedCall/model/tf.strided_slice_6/StridedSlice/end", "StatefulPartitionedCall/model/tf.strided_slice_6/StridedSlice/strides"], "attr": {"Index": {"type": "DT_INT64"}, "T": {"type": "DT_FLOAT"}, "new_axis_mask": {"i": "0"}, "begin_mask": {"i": "0"}, "shrink_axis_mask": {"i": "0"}, "ellipsis_mask": {"i": "0"}, "end_mask": {"i": "0"}}}, {"name": "StatefulPartitionedCall/model/tf.compat.v1.gather_2/GatherV2", "op": "GatherV2", "input": ["StatefulPartitionedCall/model/tf.concat_4/concat", "StatefulPartitionedCall/model/tf.compat.v1.gather_2/GatherV2/indices", "StatefulPartitionedCall/model/tf.compat.v1.gather_2/GatherV2/axis"], "attr": {"Taxis": {"type": "DT_INT32"}, "Tparams": {"type": "DT_FLOAT"}, "batch_dims": {"i": "0"}, "Tindices": {"type": "DT_INT32"}}}, {"name": "StatefulPartitionedCall/model/tf.compat.v1.squeeze_2/Squeeze", "op": "Squeeze", "input": ["StatefulPartitionedCall/model/tf.strided_slice_6/StridedSlice"], "attr": {"T": {"type": "DT_FLOAT"}, "squeeze_dims": {"list": {"i": ["0"]}}}}, {"name": "StatefulPartitionedCall/model/tf.__operators__.getitem/strided_slice", "op": "StridedSlice", "input": ["StatefulPartitionedCall/model/tf.compat.v1.gather_2/GatherV2", "StatefulPartitionedCall/model/tf.__operators__.getitem/strided_slice/stack", "StatefulPartitionedCall/model/tf.__operators__.getitem/strided_slice/stack_1", "StatefulPartitionedCall/model/tf.__operators__.getitem/strided_slice/stack_2"], "attr": {"shrink_axis_mask": {"i": "1"}, "ellipsis_mask": {"i": "0"}, "new_axis_mask": {"i": "0"}, "T": {"type": "DT_FLOAT"}, "Index": {"type": "DT_INT32"}, "begin_mask": {"i": "0"}, "end_mask": {"i": "0"}}}, {"name": "Identity", "op": "Identity", "input": ["StatefulPartitionedCall/model/tf.compat.v1.squeeze_2/Squeeze"], "attr": {"T": {"type": "DT_FLOAT"}}}, {"name": "Identity_2", "op": "Identity", "input": ["StatefulPartitionedCall/model/tf.__operators__.getitem/strided_slice"], "attr": {"T": {"type": "DT_FLOAT"}}}], "library": {}, "versions": {"producer": 898}}, "weightsManifest": [{"paths": ["group1-shard1of1.bin"], "weights": [{"name": "StatefulPartitionedCall/model/tf.strided_slice_6/StridedSlice/begin", "shape": [4], "dtype": "int32"}, {"name": "StatefulPartitionedCall/model/tf.strided_slice_6/StridedSlice/end", "shape": [4], "dtype": "int32"}, {"name": "StatefulPartitionedCall/model/tf.strided_slice_6/StridedSlice/strides", "shape": [4], "dtype": "int32"}, {"name": "StatefulPartitionedCall/model/tf.strided_slice_7/StridedSlice/begin", "shape": [4], "dtype": "int32"}, {"name": "StatefulPartitionedCall/model/tf.strided_slice_7/StridedSlice/end", "shape": [4], "dtype": "int32"}, {"name": "StatefulPartitionedCall/model/tf.strided_slice_7/StridedSlice/strides", "shape": [4], "dtype": "int32"}, {"name": "StatefulPartitionedCall/model/tf.linalg.matmul_40/MatMul/b", "shape": [32, 32], "dtype": "float32"}, {"name": "StatefulPartitionedCall/model/tf.math.add_84/Add/y", "shape": [32], "dtype": "float32"}, {"name": "StatefulPartitionedCall/model/tf.linalg.matmul_41/MatMul/b", "shape": [32, 32], "dtype": "float32"}, {"name": "StatefulPartitionedCall/model/tf.math.add_85/Add/y", "shape": [32], "dtype": "float32"}, {"name": "StatefulPartitionedCall/model/tf.linalg.matmul_42/MatMul/b", "shape": [4, 32], "dtype": "float32"}, {"name": "StatefulPartitionedCall/model/tf.math.add_86/Add/y", "shape": [4], "dtype": "float32"}, {"name": "StatefulPartitionedCall/model/tf.math.reduce_mean_11/Mean/reduction_indices", "shape": [1], "dtype": "int32"}, {"name": "StatefulPartitionedCall/model/tf.tile/Tile/multiples", "shape": [4], "dtype": "int32"}, {"name": "StatefulPartitionedCall/model/lambda/Split/split_dim", "shape": [], "dtype": "int32"}, {"name": "StatefulPartitionedCall/model/tf.linalg.matmul_37/MatMul/b", "shape": [32, 32], "dtype": "float32"}, {"name": "StatefulPartitionedCall/model/tf.math.add_81/Add/y", "shape": [32], "dtype": "float32"}, {"name": "StatefulPartitionedCall/model/tf.linalg.matmul_38/MatMul/b", "shape": [32, 32], "dtype": "float32"}, {"name": "StatefulPartitionedCall/model/tf.math.add_82/Add/y", "shape": [32], "dtype": "float32"}, {"name": "StatefulPartitionedCall/model/tf.linalg.matmul_39/MatMul/b", "shape": [4, 32], "dtype": "float32"}, {"name": "StatefulPartitionedCall/model/tf.math.add_83/Add/y", "shape": [4], "dtype": "float32"}, {"name": "StatefulPartitionedCall/model/tf.concat_4/concat/axis", "shape": [], "dtype": "int32"}, {"name": "StatefulPartitionedCall/model/tf.compat.v1.gather_2/GatherV2/indices", "shape": [1], "dtype": "int32"}, {"name": "StatefulPartitionedCall/model/tf.compat.v1.gather_2/GatherV2/axis", "shape": [], "dtype": "int32"}, {"name": "StatefulPartitionedCall/model/tf.__operators__.getitem/strided_slice/stack", "shape": [1], "dtype": "int32"}, {"name": "StatefulPartitionedCall/model/tf.__operators__.getitem/strided_slice/stack_1", "shape": [1], "dtype": "int32"}, {"name": "StatefulPartitionedCall/model/tf.__operators__.getitem/strided_slice/stack_2", "shape": [1], "dtype": "int32"}, {"name": "unknown_62", "shape": [1], "dtype": "int32"}, {"name": "StatefulPartitionedCall/model/tf.__operators__.add_6/y", "shape": [], "dtype": "float32"}, {"name": "unknown_66", "shape": [1, 1, 32], "dtype": "float32"}, {"name": "unknown_64", "shape": [1], "dtype": "int32"}, {"name": "StatefulPartitionedCall/model/tf.math.add_60/Add/y", "shape": [32], "dtype": "float32"}, {"name": "StatefulPartitionedCall/model/tf.expand_dims_13/ExpandDims/dim", "shape": [], "dtype": "int32"}, {"name": "unknown_61", "shape": [1], "dtype": "int32"}, {"name": "StatefulPartitionedCall/model/tf.__operators__.add_10/y", "shape": [], "dtype": "float32"}, {"name": "unknown_65", "shape": [1, 1, 32], "dtype": "float32"}, {"name": "unknown_58", "shape": [1], "dtype": "int32"}, {"name": "StatefulPartitionedCall/model/tf.__operators__.add_9/y", "shape": [], "dtype": "float32"}, {"name": "unknown_60", "shape": [1, 1, 32], "dtype": "float32"}, {"name": "StatefulPartitionedCall/model/tf.math.add_77/Add/y", "shape": [32], "dtype": "float32"}, {"name": "unknown_55", "shape": [1], "dtype": "int32"}, {"name": "StatefulPartitionedCall/model/tf.__operators__.add_8/y", "shape": [], "dtype": "float32"}, {"name": "unknown_57", "shape": [1, 1, 32], "dtype": "float32"}, {"name": "StatefulPartitionedCall/model/tf.math.add_73/Add/y", "shape": [32], "dtype": "float32"}, {"name": "StatefulPartitionedCall/model/tf.expand_dims_14/ExpandDims/dim", "shape": [], "dtype": "int32"}, {"name": "StatefulPartitionedCall/model/tf.expand_dims_15/ExpandDims/dim", "shape": [], "dtype": "int32"}, {"name": "StatefulPartitionedCall/model/tf.where_3/SelectV2/t", "shape": [1], "dtype": "float32"}, {"name": "unknown_50", "shape": [1], "dtype": "int32"}, {"name": "StatefulPartitionedCall/model/tf.__operators__.add_7/y", "shape": [], "dtype": "float32"}, {"name": "unknown_52", "shape": [1, 1, 32], "dtype": "float32"}, {"name": "StatefulPartitionedCall/model/tf.math.add_65/Add/y", "shape": [32], "dtype": "float32"}, {"name": "StatefulPartitionedCall/model/tf.linalg.matmul_23/MatMul/b", "shape": [32, 32], "dtype": "float32"}, {"name": "StatefulPartitionedCall/model/tf.math.add_62/Add/y", "shape": [32], "dtype": "float32"}, {"name": "StatefulPartitionedCall/model/tf.math.multiply_15/Mul/y", "shape": [1, 1, 1], "dtype": "float32"}, {"name": "StatefulPartitionedCall/model/tf.reshape_28/Reshape/shape", "shape": [3], "dtype": "int32"}, {"name": "StatefulPartitionedCall/model/tf.compat.v1.transpose_21/transpose/perm", "shape": [3], "dtype": "int32"}, {"name": "StatefulPartitionedCall/model/tf.math.add_61/Add/y", "shape": [7, 1, 32], "dtype": "float32"}, {"name": "StatefulPartitionedCall/model/tf.linalg.matmul_24/MatMul/b", "shape": [32, 32], "dtype": "float32"}, {"name": "StatefulPartitionedCall/model/tf.math.add_63/Add/y", "shape": [32], "dtype": "float32"}, {"name": "StatefulPartitionedCall/model/tf.reshape_29/Reshape/shape", "shape": [3], "dtype": "int32"}, {"name": "StatefulPartitionedCall/model/tf.compat.v1.transpose_22/transpose/perm", "shape": [3], "dtype": "int32"}, {"name": "unknown_48", "shape": [2], "dtype": "int32"}, {"name": "unknown_49", "shape": [3], "dtype": "int32"}, {"name": "unknown_45", "shape": [1], "dtype": "int32"}, {"name": "StatefulPartitionedCall/model/tf.__operators__.add_5/y", "shape": [], "dtype": "float32"}, {"name": "unknown_47", "shape": [1, 1, 32], "dtype": "float32"}, {"name": "StatefulPartitionedCall/model/tf.math.add_57/Add/y", "shape": [32], "dtype": "float32"}, {"name": "unknown_42", "shape": [1], "dtype": "int32"}, {"name": "StatefulPartitionedCall/model/tf.__operators__.add_4/y", "shape": [], "dtype": "float32"}, {"name": "unknown_44", "shape": [1, 1, 32], "dtype": "float32"}, {"name": "StatefulPartitionedCall/model/tf.expand_dims_1/ExpandDims/dim", "shape": [], "dtype": "int32"}, {"name": "StatefulPartitionedCall/model/tf.expand_dims_2/ExpandDims/dim", "shape": [], "dtype": "int32"}, {"name": "StatefulPartitionedCall/model/tf.where_2/SelectV2/t", "shape": [1], "dtype": "float32"}, {"name": "unknown_38", "shape": [2, 7, 16], "dtype": "float32"}, {"name": "StatefulPartitionedCall/model/tf.linalg.matmul_16/MatMul/b", "shape": [32, 32], "dtype": "float32"}, {"name": "StatefulPartitionedCall/model/tf.math.add_51/Add/y", "shape": [32], "dtype": "float32"}, {"name": "StatefulPartitionedCall/model/tf.reshape_21/Reshape/shape", "shape": [3], "dtype": "int32"}, {"name": "StatefulPartitionedCall/model/tf.compat.v1.transpose_18/transpose/perm", "shape": [3], "dtype": "int32"}, {"name": "StatefulPartitionedCall/model/tf.reshape_22/Reshape/shape", "shape": [4], "dtype": "int32"}, {"name": "unknown_39", "shape": [2], "dtype": "int32"}, {"name": "unknown_40", "shape": [3], "dtype": "int32"}, {"name": "StatefulPartitionedCall/model/tf.linalg.matmul_18/MatMul/b", "shape": [32, 32], "dtype": "float32"}, {"name": "StatefulPartitionedCall/model/tf.math.add_52/Add/y", "shape": [32], "dtype": "float32"}, {"name": "StatefulPartitionedCall/model/tf.reshape_26/Reshape/shape", "shape": [3], "dtype": "int32"}, {"name": "StatefulPartitionedCall/model/tf.compat.v1.transpose_19/transpose/perm", "shape": [3], "dtype": "int32"}, {"name": "StatefulPartitionedCall/model/tf.compat.v1.transpose_20/transpose/perm", "shape": [3], "dtype": "int32"}, {"name": "StatefulPartitionedCall/model/tf.reshape_27/Reshape/shape", "shape": [3], "dtype": "int32"}, {"name": "StatefulPartitionedCall/model/tf.linalg.matmul_20/MatMul/b", "shape": [32, 32], "dtype": "float32"}, {"name": "StatefulPartitionedCall/model/tf.math.add_53/Add", "shape": [7, 1, 32], "dtype": "float32"}, {"name": "unknown_43", "shape": [1], "dtype": "int32"}, {"name": "StatefulPartitionedCall/model/tf.math.add_55/Add/y", "shape": [32], "dtype": "float32"}, {"name": "StatefulPartitionedCall/model/tf.linalg.matmul_21/MatMul/b", "shape": [128, 32], "dtype": "float32"}, {"name": "StatefulPartitionedCall/model/tf.math.add_56/Add/y", "shape": [128], "dtype": "float32"}, {"name": "StatefulPartitionedCall/model/tf.linalg.matmul_22/MatMul/b", "shape": [32, 128], "dtype": "float32"}, {"name": "unknown_46", "shape": [1], "dtype": "int32"}, {"name": "StatefulPartitionedCall/model/tf.math.add_59/Add/y", "shape": [32], "dtype": "float32"}, {"name": "StatefulPartitionedCall/model/tf.linalg.matmul_26/MatMul/b", "shape": [32, 32], "dtype": "float32"}, {"name": "StatefulPartitionedCall/model/tf.math.add_64/Add/y", "shape": [32], "dtype": "float32"}, {"name": "StatefulPartitionedCall/model/tf.reshape_32/Reshape/shape", "shape": [3], "dtype": "int32"}, {"name": "StatefulPartitionedCall/model/tf.compat.v1.transpose_23/transpose/perm", "shape": [3], "dtype": "int32"}, {"name": "StatefulPartitionedCall/model/tf.compat.v1.transpose_24/transpose/perm", "shape": [3], "dtype": "int32"}, {"name": "StatefulPartitionedCall/model/tf.reshape_33/Reshape/shape", "shape": [3], "dtype": "int32"}, {"name": "StatefulPartitionedCall/model/tf.linalg.matmul_28/MatMul/b", "shape": [32, 32], "dtype": "float32"}, {"name": "unknown_51", "shape": [1], "dtype": "int32"}, {"name": "StatefulPartitionedCall/model/tf.math.add_67/Add/y", "shape": [32], "dtype": "float32"}, {"name": "StatefulPartitionedCall/model/tf.math.add_68/Add/y", "shape": [7, 1, 32], "dtype": "float32"}, {"name": "StatefulPartitionedCall/model/tf.linalg.matmul_29/MatMul/b", "shape": [32, 32], "dtype": "float32"}, {"name": "StatefulPartitionedCall/model/tf.math.add_69/Add/y", "shape": [32], "dtype": "float32"}, {"name": "StatefulPartitionedCall/model/tf.math.multiply_17/Mul/y", "shape": [1, 1, 1], "dtype": "float32"}, {"name": "StatefulPartitionedCall/model/tf.reshape_34/Reshape/shape", "shape": [3], "dtype": "int32"}, {"name": "StatefulPartitionedCall/model/tf.compat.v1.transpose_25/transpose/perm", "shape": [3], "dtype": "int32"}, {"name": "StatefulPartitionedCall/model/tf.linalg.matmul_30/MatMul/b", "shape": [32, 32], "dtype": "float32"}, {"name": "StatefulPartitionedCall/model/tf.math.add_71/Add/y", "shape": [32], "dtype": "float32"}, {"name": "StatefulPartitionedCall/model/tf.reshape_35/Reshape/shape", "shape": [3], "dtype": "int32"}, {"name": "StatefulPartitionedCall/model/tf.compat.v1.transpose_26/transpose/perm", "shape": [3], "dtype": "int32"}, {"name": "StatefulPartitionedCall/model/tf.reshape_36/Reshape/shape", "shape": [4], "dtype": "int32"}, {"name": "unknown_53", "shape": [2], "dtype": "int32"}, {"name": "unknown_54", "shape": [3], "dtype": "int32"}, {"name": "unknown_37", "shape": [1, 1, 32], "dtype": "float32"}, {"name": "unknown_35", "shape": [1], "dtype": "int32"}, {"name": "StatefulPartitionedCall/model/tf.__operators__.add_3/y", "shape": [], "dtype": "float32"}, {"name": "StatefulPartitionedCall/model/tf.math.add_47/Add/y", "shape": [32], "dtype": "float32"}, {"name": "unknown_34", "shape": [1, 1, 32], "dtype": "float32"}, {"name": "unknown_32", "shape": [1], "dtype": "int32"}, {"name": "StatefulPartitionedCall/model/tf.__operators__.add_2/y", "shape": [], "dtype": "float32"}, {"name": "StatefulPartitionedCall/model/tf.math.add_43/Add/y", "shape": [32], "dtype": "float32"}, {"name": "StatefulPartitionedCall/model/tf.linalg.matmul_11/MatMul/b", "shape": [32, 32], "dtype": "float32"}, {"name": "StatefulPartitionedCall/model/tf.math.add_42/Add/y", "shape": [32], "dtype": "float32"}, {"name": "StatefulPartitionedCall/model/tf.reshape_19/Reshape/shape", "shape": [3], "dtype": "int32"}, {"name": "StatefulPartitionedCall/model/tf.compat.v1.transpose_16/transpose/perm", "shape": [3], "dtype": "int32"}, {"name": "StatefulPartitionedCall/model/tf.compat.v1.transpose_17/transpose/perm", "shape": [3], "dtype": "int32"}, {"name": "StatefulPartitionedCall/model/tf.reshape_20/Reshape/shape", "shape": [3], "dtype": "int32"}, {"name": "StatefulPartitionedCall/model/tf.linalg.matmul_13/MatMul/b", "shape": [32, 32], "dtype": "float32"}, {"name": "unknown_33", "shape": [1], "dtype": "int32"}, {"name": "StatefulPartitionedCall/model/tf.math.add_45/Add/y", "shape": [32], "dtype": "float32"}, {"name": "StatefulPartitionedCall/model/tf.linalg.matmul_14/MatMul/b", "shape": [128, 32], "dtype": "float32"}, {"name": "StatefulPartitionedCall/model/tf.math.add_46/Add/y", "shape": [128], "dtype": "float32"}, {"name": "StatefulPartitionedCall/model/tf.linalg.matmul_15/MatMul/b", "shape": [32, 128], "dtype": "float32"}, {"name": "unknown_36", "shape": [1], "dtype": "int32"}, {"name": "StatefulPartitionedCall/model/tf.math.add_49/Add/y", "shape": [32], "dtype": "float32"}, {"name": "StatefulPartitionedCall/model/tf.linalg.matmul_32/MatMul/b", "shape": [32, 32], "dtype": "float32"}, {"name": "StatefulPartitionedCall/model/tf.math.add_72/Add/y", "shape": [32], "dtype": "float32"}, {"name": "StatefulPartitionedCall/model/tf.reshape_40/Reshape/shape", "shape": [3], "dtype": "int32"}, {"name": "StatefulPartitionedCall/model/tf.compat.v1.transpose_27/transpose/perm", "shape": [3], "dtype": "int32"}, {"name": "StatefulPartitionedCall/model/tf.compat.v1.transpose_28/transpose/perm", "shape": [3], "dtype": "int32"}, {"name": "StatefulPartitionedCall/model/tf.reshape_41/Reshape/shape", "shape": [3], "dtype": "int32"}, {"name": "StatefulPartitionedCall/model/tf.linalg.matmul_34/MatMul/b", "shape": [32, 32], "dtype": "float32"}, {"name": "unknown_56", "shape": [1], "dtype": "int32"}, {"name": "StatefulPartitionedCall/model/tf.math.add_75/Add/y", "shape": [32], "dtype": "float32"}, {"name": "StatefulPartitionedCall/model/tf.linalg.matmul_35/MatMul/b", "shape": [128, 32], "dtype": "float32"}, {"name": "StatefulPartitionedCall/model/tf.math.add_76/Add/y", "shape": [128], "dtype": "float32"}, {"name": "StatefulPartitionedCall/model/tf.linalg.matmul_36/MatMul/b", "shape": [32, 128], "dtype": "float32"}, {"name": "unknown_59", "shape": [1], "dtype": "int32"}, {"name": "StatefulPartitionedCall/model/tf.math.add_79/Add/y", "shape": [32], "dtype": "float32"}, {"name": "unknown_63", "shape": [1], "dtype": "int32"}, {"name": "StatefulPartitionedCall/model/tf.math.add_80/Add/y", "shape": [32], "dtype": "float32"}, {"name": "StatefulPartitionedCall/model/tf.expand_dims_16/ExpandDims/dim", "shape": [], "dtype": "int32"}, {"name": "StatefulPartitionedCall/model/tf.concat_3/concat/axis", "shape": [], "dtype": "int32"}, {"name": "StatefulPartitionedCall/model/tf.compat.v1.transpose_29/transpose/perm", "shape": [4], "dtype": "int32"}, {"name": "StatefulPartitionedCall/model/tf.linalg.matmul_43/MatMul/b", "shape": [2, 32], "dtype": "float32"}, {"name": "StatefulPartitionedCall/model/tf.math.add_87/Add/y", "shape": [2], "dtype": "float32"}, {"name": "StatefulPartitionedCall/model/tf.compat.v1.gather_3/GatherV2/indices", "shape": [1], "dtype": "int32"}, {"name": "StatefulPartitionedCall/model/tf.compat.v1.gather_3/GatherV2/axis", "shape": [], "dtype": "int32"}, {"name": "StatefulPartitionedCall/model/tf.__operators__.getitem_1/strided_slice/stack", "shape": [1], "dtype": "int32"}, {"name": "StatefulPartitionedCall/model/tf.__operators__.getitem_1/strided_slice/stack_1", "shape": [1], "dtype": "int32"}, {"name": "StatefulPartitionedCall/model/tf.__operators__.getitem_1/strided_slice/stack_2", "shape": [1], "dtype": "int32"}, {"name": "StatefulPartitionedCall/model/tf.expand_dims_11/ExpandDims/dim", "shape": [], "dtype": "int32"}, {"name": "StatefulPartitionedCall/model/tf.expand_dims_12/ExpandDims/dim", "shape": [], "dtype": "int32"}, {"name": "StatefulPartitionedCall/model/tf.where_1/SelectV2/t", "shape": [1], "dtype": "float32"}, {"name": "StatefulPartitionedCall/model/tf.linalg.matmul_8/MatMul/b", "shape": [32, 32], "dtype": "float32"}, {"name": "StatefulPartitionedCall/model/tf.math.add_40/Add/y", "shape": [32], "dtype": "float32"}, {"name": "StatefulPartitionedCall/model/tf.math.multiply_9/Mul/y", "shape": [1, 1, 1], "dtype": "float32"}, {"name": "StatefulPartitionedCall/model/tf.reshape_13/Reshape/shape", "shape": [3], "dtype": "int32"}, {"name": "StatefulPartitionedCall/model/tf.compat.v1.transpose_14/transpose/perm", "shape": [3], "dtype": "int32"}, {"name": "unknown_29", "shape": [1, 1, 32], "dtype": "float32"}, {"name": "unknown_27", "shape": [1], "dtype": "int32"}, {"name": "StatefulPartitionedCall/model/tf.__operators__.add_1/y", "shape": [], "dtype": "float32"}, {"name": "StatefulPartitionedCall/model/tf.math.add_36/Add/y", "shape": [32], "dtype": "float32"}, {"name": "unknown_26", "shape": [1, 1, 32], "dtype": "float32"}, {"name": "unknown_24", "shape": [1], "dtype": "int32"}, {"name": "StatefulPartitionedCall/model/tf.__operators__.add/y", "shape": [], "dtype": "float32"}, {"name": "StatefulPartitionedCall/model/tf.math.add_32/Add/y", "shape": [32], "dtype": "float32"}, {"name": "StatefulPartitionedCall/model/tf.reshape/Reshape/shape", "shape": [2], "dtype": "int32"}, {"name": "StatefulPartitionedCall/model/tf.expand_dims_3/ExpandDims/dim", "shape": [], "dtype": "int32"}, {"name": "StatefulPartitionedCall/model/tf.expand_dims_4/ExpandDims/dim", "shape": [], "dtype": "int32"}, {"name": "StatefulPartitionedCall/model/tf.where/SelectV2/t", "shape": [1], "dtype": "float32"}, {"name": "StatefulPartitionedCall/model/tf.linalg.matmul/MatMul/b", "shape": [32, 32], "dtype": "float32"}, {"name": "StatefulPartitionedCall/model/tf.math.add_29/Add/y", "shape": [32], "dtype": "float32"}, {"name": "StatefulPartitionedCall/model/tf.math.multiply_6/Mul/y", "shape": [1, 1, 1], "dtype": "float32"}, {"name": "StatefulPartitionedCall/model/tf.reshape_5/Reshape/shape", "shape": [3], "dtype": "int32"}, {"name": "StatefulPartitionedCall/model/tf.compat.v1.transpose_10/transpose/perm", "shape": [3], "dtype": "int32"}, {"name": "StatefulPartitionedCall/model/tf.strided_slice_1/StridedSlice/begin", "shape": [4], "dtype": "int32"}, {"name": "StatefulPartitionedCall/model/tf.strided_slice_1/StridedSlice/end", "shape": [4], "dtype": "int32"}, {"name": "StatefulPartitionedCall/model/tf.strided_slice_1/StridedSlice/strides", "shape": [4], "dtype": "int32"}, {"name": "StatefulPartitionedCall/model/tf.compat.v1.transpose_3/transpose/perm", "shape": [4], "dtype": "int32"}, {"name": "StatefulPartitionedCall/model/tf.expand_dims_6/ExpandDims/dim", "shape": [], "dtype": "int32"}, {"name": "StatefulPartitionedCall/model/tf.math.multiply_1/Mul/y", "shape": [1, 1, 1], "dtype": "float32"}, {"name": "unknown_14", "shape": [], "dtype": "int32"}, {"name": "StatefulPartitionedCall/model/tf.strided_slice/StridedSlice/begin", "shape": [3], "dtype": "int32"}, {"name": "StatefulPartitionedCall/model/tf.strided_slice/StridedSlice/end", "shape": [3], "dtype": "int32"}, {"name": "StatefulPartitionedCall/model/tf.strided_slice/StridedSlice/strides", "shape": [3], "dtype": "int32"}, {"name": "StatefulPartitionedCall/model/tf.math.add_26/Add/y", "shape": [1, 1, 1], "dtype": "float32"}, {"name": "StatefulPartitionedCall/model/tf.expand_dims_5/ExpandDims/dim", "shape": [], "dtype": "int32"}, {"name": "unknown_19", "shape": [1, 1, 1, 16], "dtype": "float32"}, {"name": "StatefulPartitionedCall/model/tf.compat.v1.transpose_2/transpose/perm", "shape": [4], "dtype": "int32"}, {"name": "StatefulPartitionedCall/model/tf.strided_slice_2/StridedSlice/begin", "shape": [4], "dtype": "int32"}, {"name": "StatefulPartitionedCall/model/tf.strided_slice_2/StridedSlice/end", "shape": [4], "dtype": "int32"}, {"name": "StatefulPartitionedCall/model/tf.strided_slice_2/StridedSlice/strides", "shape": [4], "dtype": "int32"}, {"name": "StatefulPartitionedCall/model/tf.compat.v1.transpose_4/transpose/perm", "shape": [4], "dtype": "int32"}, {"name": "StatefulPartitionedCall/model/tf.expand_dims_7/ExpandDims/dim", "shape": [], "dtype": "int32"}, {"name": "StatefulPartitionedCall/model/tf.concat/concat/axis", "shape": [], "dtype": "int32"}, {"name": "StatefulPartitionedCall/model/tf.reshape_2/Reshape/shape", "shape": [4], "dtype": "int32"}, {"name": "StatefulPartitionedCall/model/tf.strided_slice_4/StridedSlice/begin", "shape": [4], "dtype": "int32"}, {"name": "StatefulPartitionedCall/model/tf.strided_slice_4/StridedSlice/end", "shape": [4], "dtype": "int32"}, {"name": "StatefulPartitionedCall/model/tf.strided_slice_4/StridedSlice/strides", "shape": [4], "dtype": "int32"}, {"name": "StatefulPartitionedCall/model/tf.compat.v1.transpose_6/transpose/perm", "shape": [4], "dtype": "int32"}, {"name": "StatefulPartitionedCall/model/tf.expand_dims_9/ExpandDims/dim", "shape": [], "dtype": "int32"}, {"name": "StatefulPartitionedCall/model/tf.math.multiply_4/Mul/y", "shape": [1, 1, 1], "dtype": "float32"}, {"name": "StatefulPartitionedCall/model/tf.compat.v1.gather/GatherV2/indices", "shape": [1], "dtype": "int32"}, {"name": "StatefulPartitionedCall/model/tf.compat.v1.gather/GatherV2/axis", "shape": [], "dtype": "int32"}, {"name": "StatefulPartitionedCall/model/tf.expand_dims/ExpandDims/dim", "shape": [], "dtype": "int32"}, {"name": "StatefulPartitionedCall/model/tf.compat.v1.transpose/transpose/perm", "shape": [4], "dtype": "int32"}, {"name": "StatefulPartitionedCall/model/tf.image.resize/resize/size", "shape": [2], "dtype": "int32"}, {"name": "StatefulPartitionedCall/model/tf.compat.v1.gather_1/GatherV2/indices", "shape": [1], "dtype": "int32"}, {"name": "StatefulPartitionedCall/model/tf.compat.v1.gather_1/GatherV2/axis", "shape": [], "dtype": "int32"}, {"name": "unknown_13", "shape": [], "dtype": "int32"}, {"name": "StatefulPartitionedCall/model/tf.strided_slice_3/StridedSlice/begin", "shape": [3], "dtype": "int32"}, {"name": "StatefulPartitionedCall/model/tf.strided_slice_3/StridedSlice/end", "shape": [3], "dtype": "int32"}, {"name": "StatefulPartitionedCall/model/tf.strided_slice_3/StridedSlice/strides", "shape": [3], "dtype": "int32"}, {"name": "StatefulPartitionedCall/model/tf.math.add_27/Add/y", "shape": [1], "dtype": "float32"}, {"name": "StatefulPartitionedCall/model/tf.expand_dims_8/ExpandDims/dim", "shape": [], "dtype": "int32"}, {"name": "unknown_18", "shape": [1, 1, 1, 16], "dtype": "float32"}, {"name": "StatefulPartitionedCall/model/tf.compat.v1.transpose_5/transpose/perm", "shape": [4], "dtype": "int32"}, {"name": "StatefulPartitionedCall/model/tf.strided_slice_5/StridedSlice/begin", "shape": [4], "dtype": "int32"}, {"name": "StatefulPartitionedCall/model/tf.strided_slice_5/StridedSlice/end", "shape": [4], "dtype": "int32"}, {"name": "StatefulPartitionedCall/model/tf.strided_slice_5/StridedSlice/strides", "shape": [4], "dtype": "int32"}, {"name": "StatefulPartitionedCall/model/tf.compat.v1.transpose_7/transpose/perm", "shape": [4], "dtype": "int32"}, {"name": "StatefulPartitionedCall/model/tf.expand_dims_10/ExpandDims/dim", "shape": [], "dtype": "int32"}, {"name": "StatefulPartitionedCall/model/tf.concat_1/concat/axis", "shape": [], "dtype": "int32"}, {"name": "StatefulPartitionedCall/model/tf.reshape_3/Reshape/shape", "shape": [4], "dtype": "int32"}, {"name": "StatefulPartitionedCall/model/tf.concat_2/concat/axis", "shape": [], "dtype": "int32"}, {"name": "StatefulPartitionedCall/model/tf.compat.v1.transpose_8/transpose/perm", "shape": [4], "dtype": "int32"}, {"name": "StatefulPartitionedCall/model/tf.reshape_4/Reshape/shape", "shape": [3], "dtype": "int32"}, {"name": "StatefulPartitionedCall/model/tf.compat.v1.transpose_9/transpose/perm", "shape": [3], "dtype": "int32"}, {"name": "StatefulPartitionedCall/model/tf.linalg.matmul_1/MatMul/b", "shape": [32, 32], "dtype": "float32"}, {"name": "StatefulPartitionedCall/model/tf.math.add_30/Add/y", "shape": [32], "dtype": "float32"}, {"name": "StatefulPartitionedCall/model/tf.reshape_6/Reshape/shape", "shape": [3], "dtype": "int32"}, {"name": "StatefulPartitionedCall/model/tf.compat.v1.transpose_11/transpose/perm", "shape": [3], "dtype": "int32"}, {"name": "StatefulPartitionedCall/model/tf.reshape_7/Reshape/shape", "shape": [4], "dtype": "int32"}, {"name": "unknown_22", "shape": [2], "dtype": "int32"}, {"name": "unknown_23", "shape": [3], "dtype": "int32"}, {"name": "StatefulPartitionedCall/model/zero_padding2d_12/Pad/paddings", "shape": [4, 2], "dtype": "int32"}, {"name": "StatefulPartitionedCall/model/conv2d_13/Conv2D/ReadVariableOp", "shape": [3, 3, 64, 128], "dtype": "float32"}, {"name": "StatefulPartitionedCall/model/tf.math.add_18/Add/y", "shape": [128], "dtype": "float32"}, {"name": "StatefulPartitionedCall/model/zero_padding2d_13/Pad/paddings", "shape": [4, 2], "dtype": "int32"}, {"name": "StatefulPartitionedCall/model/conv2d_14/Conv2D/ReadVariableOp", "shape": [3, 3, 128, 128], "dtype": "float32"}, {"name": "StatefulPartitionedCall/model/tf.math.add_19/Add/y", "shape": [128], "dtype": "float32"}, {"name": "StatefulPartitionedCall/model/zero_padding2d_8/Pad/paddings", "shape": [4, 2], "dtype": "int32"}, {"name": "StatefulPartitionedCall/model/conv2d_8/Conv2D/ReadVariableOp", "shape": [3, 3, 32, 64], "dtype": "float32"}, {"name": "StatefulPartitionedCall/model/tf.math.add_11/Add/y", "shape": [64], "dtype": "float32"}, {"name": "StatefulPartitionedCall/model/zero_padding2d_9/Pad/paddings", "shape": [4, 2], "dtype": "int32"}, {"name": "StatefulPartitionedCall/model/conv2d_9/Conv2D/ReadVariableOp", "shape": [3, 3, 64, 64], "dtype": "float32"}, {"name": "StatefulPartitionedCall/model/tf.math.add_12/Add/y", "shape": [64], "dtype": "float32"}, {"name": "StatefulPartitionedCall/model/zero_padding2d_4/Pad/paddings", "shape": [4, 2], "dtype": "int32"}, {"name": "StatefulPartitionedCall/model/conv2d_3/Conv2D/ReadVariableOp", "shape": [3, 3, 16, 32], "dtype": "float32"}, {"name": "StatefulPartitionedCall/model/tf.math.add_4/Add/y", "shape": [32], "dtype": "float32"}, {"name": "StatefulPartitionedCall/model/zero_padding2d_5/Pad/paddings", "shape": [4, 2], "dtype": "int32"}, {"name": "StatefulPartitionedCall/model/conv2d_4/Conv2D/ReadVariableOp", "shape": [3, 3, 32, 32], "dtype": "float32"}, {"name": "StatefulPartitionedCall/model/tf.math.add_5/Add/y", "shape": [32], "dtype": "float32"}, {"name": "StatefulPartitionedCall/model/zero_padding2d/Pad/paddings", "shape": [4, 2], "dtype": "int32"}, {"name": "StatefulPartitionedCall/model/conv2d/Conv2D/ReadVariableOp", "shape": [7, 7, 3, 16], "dtype": "float32"}, {"name": "StatefulPartitionedCall/model/zero_padding2d_1/Pad/paddings", "shape": [4, 2], "dtype": "int32"}, {"name": "StatefulPartitionedCall/model/zero_padding2d_2/Pad/paddings", "shape": [4, 2], "dtype": "int32"}, {"name": "StatefulPartitionedCall/model/conv2d_1/Conv2D/ReadVariableOp", "shape": [3, 3, 16, 16], "dtype": "float32"}, {"name": "StatefulPartitionedCall/model/tf.math.add_1/Add/y", "shape": [16], "dtype": "float32"}, {"name": "StatefulPartitionedCall/model/zero_padding2d_3/Pad/paddings", "shape": [4, 2], "dtype": "int32"}, {"name": "StatefulPartitionedCall/model/conv2d_2/Conv2D/ReadVariableOp", "shape": [3, 3, 16, 16], "dtype": "float32"}, {"name": "StatefulPartitionedCall/model/tf.math.add_2/Add/y", "shape": [16], "dtype": "float32"}, {"name": "StatefulPartitionedCall/model/conv2d_5/Conv2D/ReadVariableOp", "shape": [1, 1, 16, 32], "dtype": "float32"}, {"name": "StatefulPartitionedCall/model/tf.math.add_6/Add/y", "shape": [32], "dtype": "float32"}, {"name": "StatefulPartitionedCall/model/zero_padding2d_6/Pad/paddings", "shape": [4, 2], "dtype": "int32"}, {"name": "StatefulPartitionedCall/model/conv2d_6/Conv2D/ReadVariableOp", "shape": [3, 3, 32, 32], "dtype": "float32"}, {"name": "StatefulPartitionedCall/model/tf.math.add_8/Add/y", "shape": [32], "dtype": "float32"}, {"name": "StatefulPartitionedCall/model/zero_padding2d_7/Pad/paddings", "shape": [4, 2], "dtype": "int32"}, {"name": "StatefulPartitionedCall/model/conv2d_7/Conv2D/ReadVariableOp", "shape": [3, 3, 32, 32], "dtype": "float32"}, {"name": "StatefulPartitionedCall/model/tf.math.add_9/Add/y", "shape": [32], "dtype": "float32"}, {"name": "StatefulPartitionedCall/model/conv2d_10/Conv2D/ReadVariableOp", "shape": [1, 1, 32, 64], "dtype": "float32"}, {"name": "StatefulPartitionedCall/model/tf.math.add_13/Add/y", "shape": [64], "dtype": "float32"}, {"name": "StatefulPartitionedCall/model/zero_padding2d_10/Pad/paddings", "shape": [4, 2], "dtype": "int32"}, {"name": "StatefulPartitionedCall/model/conv2d_11/Conv2D/ReadVariableOp", "shape": [3, 3, 64, 64], "dtype": "float32"}, {"name": "StatefulPartitionedCall/model/tf.math.add_15/Add/y", "shape": [64], "dtype": "float32"}, {"name": "StatefulPartitionedCall/model/zero_padding2d_11/Pad/paddings", "shape": [4, 2], "dtype": "int32"}, {"name": "StatefulPartitionedCall/model/conv2d_12/Conv2D/ReadVariableOp", "shape": [3, 3, 64, 64], "dtype": "float32"}, {"name": "StatefulPartitionedCall/model/tf.math.add_16/Add/y", "shape": [64], "dtype": "float32"}, {"name": "StatefulPartitionedCall/model/conv2d_15/Conv2D/ReadVariableOp", "shape": [1, 1, 64, 128], "dtype": "float32"}, {"name": "StatefulPartitionedCall/model/tf.math.add_20/Add/y", "shape": [128], "dtype": "float32"}, {"name": "StatefulPartitionedCall/model/zero_padding2d_14/Pad/paddings", "shape": [4, 2], "dtype": "int32"}, {"name": "StatefulPartitionedCall/model/conv2d_16/Conv2D/ReadVariableOp", "shape": [3, 3, 128, 128], "dtype": "float32"}, {"name": "StatefulPartitionedCall/model/tf.math.add_22/Add/y", "shape": [128], "dtype": "float32"}, {"name": "StatefulPartitionedCall/model/zero_padding2d_15/Pad/paddings", "shape": [4, 2], "dtype": "int32"}, {"name": "StatefulPartitionedCall/model/conv2d_17/Conv2D/ReadVariableOp", "shape": [3, 3, 128, 128], "dtype": "float32"}, {"name": "StatefulPartitionedCall/model/tf.math.add_23/Add/y", "shape": [128], "dtype": "float32"}, {"name": "StatefulPartitionedCall/model/conv2d_18/Conv2D/ReadVariableOp", "shape": [1, 1, 128, 32], "dtype": "float32"}, {"name": "StatefulPartitionedCall/model/tf.math.add_25/Add/y", "shape": [32], "dtype": "float32"}, {"name": "StatefulPartitionedCall/model/tf.reshape_1/Reshape/shape", "shape": [3], "dtype": "int32"}, {"name": "StatefulPartitionedCall/model/tf.compat.v1.transpose_1/transpose/perm", "shape": [3], "dtype": "int32"}, {"name": "StatefulPartitionedCall/model/tf.linalg.matmul_3/MatMul/b", "shape": [32, 32], "dtype": "float32"}, {"name": "StatefulPartitionedCall/model/tf.math.add_31/Add/y", "shape": [32], "dtype": "float32"}, {"name": "StatefulPartitionedCall/model/tf.reshape_11/Reshape/shape", "shape": [3], "dtype": "int32"}, {"name": "StatefulPartitionedCall/model/tf.compat.v1.transpose_12/transpose/perm", "shape": [3], "dtype": "int32"}, {"name": "StatefulPartitionedCall/model/tf.compat.v1.transpose_13/transpose/perm", "shape": [3], "dtype": "int32"}, {"name": "StatefulPartitionedCall/model/tf.reshape_12/Reshape/shape", "shape": [3], "dtype": "int32"}, {"name": "StatefulPartitionedCall/model/tf.linalg.matmul_5/MatMul/b", "shape": [32, 32], "dtype": "float32"}, {"name": "unknown_25", "shape": [1], "dtype": "int32"}, {"name": "StatefulPartitionedCall/model/tf.math.add_34/Add/y", "shape": [32], "dtype": "float32"}, {"name": "StatefulPartitionedCall/model/tf.linalg.matmul_6/MatMul/b", "shape": [128, 32], "dtype": "float32"}, {"name": "StatefulPartitionedCall/model/tf.math.add_35/Add/y", "shape": [128], "dtype": "float32"}, {"name": "StatefulPartitionedCall/model/tf.linalg.matmul_7/MatMul/b", "shape": [32, 128], "dtype": "float32"}, {"name": "unknown_28", "shape": [1], "dtype": "int32"}, {"name": "StatefulPartitionedCall/model/tf.math.add_38/Add/y", "shape": [32], "dtype": "float32"}, {"name": "StatefulPartitionedCall/model/tf.linalg.matmul_9/MatMul/b", "shape": [32, 32], "dtype": "float32"}, {"name": "StatefulPartitionedCall/model/tf.math.add_41/Add/y", "shape": [32], "dtype": "float32"}, {"name": "StatefulPartitionedCall/model/tf.reshape_14/Reshape/shape", "shape": [3], "dtype": "int32"}, {"name": "StatefulPartitionedCall/model/tf.compat.v1.transpose_15/transpose/perm", "shape": [3], "dtype": "int32"}, {"name": "StatefulPartitionedCall/model/tf.reshape_15/Reshape/shape", "shape": [4], "dtype": "int32"}, {"name": "unknown_30", "shape": [2], "dtype": "int32"}, {"name": "unknown_31", "shape": [3], "dtype": "int32"}, {"name": "StatefulPartitionedCall/model/tf.reshape_42/Reshape/shape", "shape": [4], "dtype": "int32"}, {"name": "StatefulPartitionedCall/model/tf.math.reduce_sum/Sum/reduction_indices", "shape": [], "dtype": "int32"}, {"name": "StatefulPartitionedCall/model/tf.math.multiply_22/Mul/y", "shape": [1, 1, 1], "dtype": "float32"}]}]}